ComputerVision/ImageClassification/SmallNetwork/8_DeepCompression/pruned_model.tflite (tflite, 377004 bytes, 10 tensors)

sequential/conv2d/BiasAdd/ReadVariableOp f4 [32]
000000 c1 5b 14 3d 94 45 1c 3d 04 8f bb bc 2a dd 4f 3d
       0.036220316 0.038152292 -0.022895344 0.050748028
000010 be 51 80 bb 51 a1 1c bc 0f 3e 12 be 7d 90 a7 bc
       -0.0039159944 -0.009559945 -0.14281486 -0.02045464
000020 e8 fd 9f bd 19 f8 9b bc b9 46 e7 bb 7e 46 8a 3a
       -0.07812101 -0.0190392 -0.0070579913 0.0010549573
000030 5d 00 74 bc e1 a5 6d bc ae 59 28 be 05 c0 f8 bc
       -0.014892665 -0.014504881 -0.1644046 -0.030365
000040 5f a1 b7 bd 66 d3 17 bd e8 c5 e8 bd a7 ae 4c bd
       -0.08966326 -0.03706684 -0.113658726 -0.04997125
000050 1b 47 d7 bd 27 ca 58 bd f4 ce 3f be c4 82 17 bd
       -0.10511609 -0.052927162 -0.1873129 -0.036989942
000060 a6 35 19 be c4 22 10 be 5d 92 8c 3d e9 bb d7 bb
       -0.14961872 -0.14075762 0.06863854 -0.00658368
000070 29 97 1a be 49 38 59 3c 2e fe 3e be 58 06 b1 bc
       -0.15096726 0.013258048 -0.1865165 -0.02160947

sequential/conv2d_1/BiasAdd/ReadVariableOp f4 [64]
000000 85 d1 28 bd 41 d3 f5 bd d9 f2 fc bd 0b ab 6c bd
       -0.04121544 -0.12003184 -0.12351007 -0.057780307
000010 0b 52 22 bd 01 9a d1 3c b0 00 4e bd 3e 47 83 bd
       -0.039629024 0.02558613 -0.050293624 -0.06410073
000020 e6 de 0c be 6e 00 12 3b 50 c8 ac bd 84 63 86 3d
       -0.13756904 0.0022278088 -0.08436644 0.0656195
000030 ec 0a 2c bd c4 7d 7b bd 83 9c 9a bb e3 00 d3 3b
       -0.042002603 -0.061399236 -0.0047183647 0.0064393147
000040 e2 97 67 bd 1a 01 de 3b 66 1f 11 bd ea 97 2c bd
       -0.05654133 0.0067750337 -0.035430335 -0.042137064
000050 9d 1d 4f bc 63 f3 d2 bd 2b 0c 7c bd fb 7f 3a bd
       -0.012641338 -0.103003286 -0.06153504 -0.045532208
000060 93 64 41 bd ff a9 21 bd 17 10 0e be f2 06 63 bd
       -0.047215056 -0.03946876 -0.13873325 -0.055426545
000070 30 54 8d bd d0 05 12 3c 1a 45 ff 3b b8 ba bd bd
       -0.06900823 0.008912519 0.00779022 -0.092641294
000080 42 2d b2 bd 17 df 12 be 9d e8 db bd 08 e5 0f bc
       -0.087000385 -0.14342915 -0.10737727 -0.008782633
000090 fe 5a ac bd 83 e9 6c bc b6 af e1 bb 1c ef f3 bd
       -0.08415793 -0.01445997 -0.0068874015 -0.11910841
0000a0 5b fa c8 bd cb c3 88 bd eb b8 b5 bd 3a 9f 20 bc
       -0.098133765 -0.066779695 -0.08873161 -0.009803588
0000b0 21 60 b4 bc 65 7d 8e bc cd ed 0e bc 5b 73 bb bd
       -0.022018494 -0.017393777 -0.008723688 -0.09152862
0000c0 3d f7 c8 bd 0c ab ff bd dc b4 a7 bd d6 66 06 bd
       -0.09812782 -0.124837965 -0.08188793 -0.032812916
0000d0 8e 1e 8d bd b7 a0 c3 bd c8 bd 1d 3b b9 f6 0a be
       -0.068905935 -0.09552138 0.0024069417 -0.1357068
0000e0 60 e5 bd bd 8e 10 50 3b 66 a4 67 bd ff 27 bf bc
       -0.092722654 0.0031748149 -0.056553267 -0.023334501
0000f0 f6 5d 47 bc 45 50 03 be f8 69 a6 bd 4d 94 6a bd
       -0.012168398 -0.12823589 -0.08125681 -0.057270337

sequential/conv2d_2/BiasAdd/ReadVariableOp f4 [64]
000000 c3 e3 0f bd 17 d5 24 bd b0 52 2d bd e1 42 8e bd
       -0.03512932 -0.04024228 -0.042315185 -0.0694635
000010 21 22 84 3d 4b 6d 66 bd 75 bb 0c bc 5d ca d2 bd
       0.06451822 -0.056256574 -0.008589615 -0.10292504
000020 6c db 67 3d 21 e7 70 bd ad e1 33 bd 30 fe 38 bd
       0.05660574 -0.05881417 -0.043916393 -0.045164287
000030 76 bc 2a 3d f7 c9 eb bc c1 96 7a bb 81 a8 ea bc
       0.041683637 -0.028782828 -0.003823683 -0.028644802
000040 ea 6e 4a 3d 2b df 3b bd 6c 25 fc bb 73 48 a7 bd
       0.049422182 -0.045867126 -0.0076948907 -0.081681155
000050 b0 67 f4 bc e4 cd 47 3b 7a 70 fb 3d de d4 af 3d
       -0.029834598 0.003048771 0.122773126 0.08585523
000060 40 6c c3 bc 78 3e 9b bd 17 e3 96 3b 0f 8c b1 bd
       -0.023855329 -0.07580274 0.004604708 -0.08669292
000070 fc 0f 3e 3d 6c 5f 90 bc 5f e9 06 bd 5b ac 52 bc
       0.046401963 -0.017623626 -0.032937404 -0.012858476
000080 7d 5c d5 bc 4c 84 94 bd 28 f4 e6 bc c2 70 f6 bc
       -0.026045078 -0.07251796 -0.028192595 -0.030083064
000090 46 eb c9 bc c8 d5 1e bd b0 67 aa 3c f5 6b 8e 3c
       -0.02464832 -0.038778096 0.020801395 0.017385462
0000a0 d5 e7 b6 bb 74 0e 90 bd fc d9 83 bd cb df a8 3b
       -0.0055818358 -0.07034007 -0.064380616 0.0051536313
0000b0 69 f5 2f bd b9 19 3a bd 87 80 eb 3c 23 9e 97 bc
       -0.04295865 -0.045434687 0.02874781 -0.018508023
0000c0 0b 59 5e bd 5b 25 41 bc ed d9 74 bc a9 7c 97 bc
       -0.054284137 -0.011788691 -0.014944536 -0.01849206
0000d0 77 59 d6 3b d0 e7 b5 3d e1 e1 98 3c 2a 9a b1 bc
       0.0065414268 0.08882105 0.018662395 -0.021679956
0000e0 7f e2 c4 39 5c 79 ac 3c 76 52 2a bc 19 64 b7 3c
       0.00037552786 0.021053962 -0.010395637 0.022386597
0000f0 a7 14 f5 3c e3 47 c9 bc 01 00 83 bd b0 3b aa bd
       0.029917074 -0.024570411 -0.06396485 -0.08312166

sequential/conv2d/Conv2D f4 [32, 3, 3, 1]
000000 54 80 1d be 15 d6 12 3e 3e d7 a6 3e 24 7d 21 bf
       -0.15380985 0.14339478 0.32586092 -0.63081574
000010 a5 b8 10 be de 2a c3 3e cb af 0a be 74 3d e3 be
       -0.14132936 0.38118643 -0.13543622 -0.44382823
000020 c8 77 05 bc d4 ed a1 bd 6a e5 50 3e eb c6 9b 3e
       -0.008146234 -0.0790669 0.20400015 0.304252
000030 66 7f 64 be 97 e8 83 be 40 4f e3 3d 21 a1 e9 bd
       -0.22314224 -0.2576339 0.110991 -0.11407686
000040 d2 ab b7 be 1e 16 d6 be 81 30 36 3e 6f ba 91 3d
       -0.35873276 -0.4181375 0.1779194 0.071156375
000050 d6 f3 4b 3e 3d 44 95 3c 09 df 57 bc b4 02 f8 3d
       0.19917235 0.018221015 -0.013175734 0.121098906
000060 80 a2 93 be 0f 74 1f be 76 e1 0f be 24 b9 3f 3e
       -0.28834915 -0.15571617 -0.1405085 0.1872297
000070 65 07 14 3e fc c2 cc be 26 ef c6 bc a5 16 2b bf
       0.14455946 -0.3999251 -0.024283957 -0.6683143
000080 00 56 d9 bd 7c f7 f6 be f7 7f ba 3d fc 2a d6 3e
       -0.10612106 -0.4823569 0.091064386 0.4182967
000090 db bf c3 3d 2d 6c ad 3d f0 f2 73 3e 55 4a 63 3c
       0.09558078 0.084678985 0.23823142 0.013872703
0000a0 65 77 e7 3d 9c c2 ce bc ef fa 1d be 44 94 a1 be
       0.113020696 -0.025239281 -0.15427755 -0.3155843
0000b0 9f 13 8f bd 41 7f 91 be a2 d1 25 3e 16 6f c0 bd
       -0.06986164 -0.284174 0.1619325 -0.09396188
0000c0 53 05 ac bd 53 1c 70 3e 25 72 08 3e 4d 97 bd bd
       -0.08399453 0.23448305 0.13324793 -0.09257374
0000d0 40 98 d5 bc ee db bd 3c 88 34 a5 bc b9 13 67 bd
       -0.026073575 0.02317616 -0.02016665 -0.056415293
0000e0 81 21 29 bd 7c ae 54 3d 46 1d 62 3d 95 db 20 3d
       -0.041291717 0.051924214 0.0552037 0.03927191
0000f0 be b1 e7 3b 30 1a 84 bc 86 73 07 be 41 22 c2 bc
       0.007070749 -0.016125768 -0.13227662 -0.023697974
000100 d4 3a c8 bc 12 f7 cd bd 76 0b 7c 3e cc 1b 0a 3c
       -0.024442114 -0.100568905 0.24613747 0.008429479
000110 03 59 bd be 78 70 30 3e f2 63 61 3e 1e 4c 7b be
       -0.36981973 0.17230403 0.22010782 -0.24540755
000120 44 32 71 be e3 7d 2f 3e 29 b6 f6 bd 0e 44 08 be
       -0.23554331 0.17137866 -0.12046463 -0.13307211
000130 a5 00 40 3e ce 64 03 3d 71 2e 83 3d b8 95 d4 3a
       0.18750246 0.032078557 0.06405342 0.0016218936
000140 34 96 33 be a7 66 0a 3e b7 aa 7f 3d 23 4a 10 3c
       -0.17537767 0.13515721 0.062418666 0.008806738
000150 ec 23 34 3c bd 88 77 3c 01 b1 24 3c 5a ee 95 bd
       0.010994893 0.015108285 0.010051967 -0.073208526
000160 d5 e2 3e be fa 11 b5 be b6 ce 3f be 61 ac 06 bf
       -0.18641217 -0.35365278 -0.18731198 -0.5260678
000170 e6 69 ce 3d b2 42 87 3e e1 20 2b be ed e3 07 be
       0.10078792 0.26418072 -0.16711761 -0.1327054
000180 1f ea 93 3e e4 13 e7 3d 0f 1a 92 bd d0 66 bd bd
       0.28889558 0.11283091 -0.071338765 -0.092481256
000190 b8 8f 18 3e fc 6c 44 bd 1d 3d 66 bc fc 46 2a 3d
       0.14898574 -0.047955498 -0.0140526565 0.041571602
0001a0 79 4f a0 3e 65 cd 6c bc c8 cc 85 be b4 33 84 be
       0.31310633 -0.014453267 -0.26132798 -0.25820696
0001b0 27 ec 97 3e a6 b7 d6 bd 83 e6 3d be a2 19 95 3e
       0.29672357 -0.10484247 -0.18544964 0.2912112
0001c0 7d f9 d7 bc c0 9b 84 be ed 68 d8 3d dc df 22 be
       -0.026364082 -0.25900078 0.10566888 -0.15905708
0001d0 f9 b0 fb be 23 8b 06 3e d1 89 22 3e 02 80 3d 3e
       -0.49158457 0.13139014 0.15872885 0.18505862
0001e0 84 e4 a3 3d 3a 14 cd ba 2e d1 ac bd 8c 86 87 be
       0.0800257 -0.0015646287 -0.08438335 -0.2646984
0001f0 5a db 6b be 33 a7 0b bd 07 b2 11 bb 7a c6 38 bd
       -0.23032895 -0.034095 -0.0022231357 -0.045111157
000200 38 23 6b 3d 64 1e 8e 3d 6e 64 b0 bd f2 61 3a 3d
       0.057406634 0.0693939 -0.086129054 0.045503564
000210 57 b6 93 3c 5a 79 fe bd aa 84 4d 3d da ea 26 be
       0.018031282 -0.1242549 0.050175346 -0.16300526
000220 44 85 33 3e 78 2b 19 3d 08 39 08 3e 58 8b 0d 3e
       0.17531306 0.03739497 0.13303006 0.13822687
000230 d8 99 18 be c7 5c 97 bd b5 03 c0 bd c1 2c a5 bd
       -0.14902437 -0.07390743 -0.09375707 -0.08065177
000240 2a 70 89 be b4 4c c2 bc c8 78 0a 3e a1 9a 07 3d
       -0.26843387 -0.023718216 0.13522637 0.03310645
000250 42 98 b7 3e c3 dd 45 bd 9d d3 10 3e 4f 25 3b 3d
       0.3585835 -0.04830719 0.14143224 0.045689877
000260 7c fb da be 93 4a 9e be 64 05 e0 bd 29 c1 8d 3e
       -0.42769992 -0.3091627 -0.10938528 0.27686432
000270 55 34 d1 be 57 e7 61 3e 51 be 32 3e ba 8f 85 be
       -0.4086024 0.22060905 0.17455412 -0.26086217
000280 b4 6d 9d 3d fb 46 46 3d fb d9 f7 3d ca 0e 0b be
       0.0768694 0.048407536 0.12102123 -0.1357986
000290 c0 bf dd be c6 a4 96 3d 6e 93 17 3d 91 2f 52 bd
       -0.43310356 0.07355647 0.037005834 -0.051314894
0002a0 c9 cd 1e 3e cf 77 fd 3d 8f 0a 6d 3e 60 c9 61 be
       0.15508188 0.12376367 0.23148559 -0.22049475
0002b0 6f 63 4d 3d 7b 2b 0b be e3 b0 2c 3d b1 11 b4 3d
       0.050143655 -0.13590805 0.04216088 0.08792437
0002c0 03 c9 91 be 91 c3 27 3c cb 4f 06 3e 54 2c ef 3d
       -0.28473672 0.010239498 0.13116376 0.11678377
0002d0 c1 f1 8c 3d eb f0 03 3d 6a 16 1b be c7 f3 83 3d
       0.068820484 0.03221218 -0.15145269 0.06442981
0002e0 d5 49 94 3d 4f e7 89 be fd ec ec bd d5 e7 cf 3d
       0.07240645 -0.26934287 -0.115686394 0.1015164
0002f0 00 9a 83 3d 6d 0c 36 3d 6c f5 06 be d0 fe 11 3e
       0.064258575 0.044445444 -0.13179559 0.1425736
000300 0f 61 4c bc f9 b9 8f be 19 51 d2 be 81 93 a3 3e
       -0.012474312 -0.28071573 -0.41077498 0.31948474
000310 15 69 41 3e 29 2b e4 3d 16 c9 d1 3d 33 c2 48 bd
       0.18887742 0.11141045 0.10243432 -0.049013328
000320 b0 92 cd bd e2 59 9b bd 7f 6f 84 3c 73 1c 8a 3d
       -0.10037744 -0.07585503 0.016166447 0.067437075
000330 b7 93 df bd db 87 1d 3d 26 bc 0b bd 74 0b 95 be
       -0.10916846 0.03845964 -0.03411498 -0.291103
000340 1e c6 81 bd 1a b6 9d 3d f9 9f a3 be f2 ae 05 be
       -0.06336616 0.07700749 -0.31957987 -0.13055018
000350 46 e8 28 3e 24 d8 bd be 0f 98 97 bd d2 ab 4a 3e
       0.16494855 -0.37078965 -0.0740205 0.19792107
000360 ec 98 f1 3c cb 9b fa bc 89 a4 d9 bd 83 65 b9 3d
       0.029491864 -0.030591866 -0.10627086 0.09052565
000370 19 83 19 3d 83 ad 11 be d9 23 6a bd 59 e3 5e 3e
       0.03747854 -0.14226346 -0.057163093 0.21766414
000380 e7 57 88 3d 08 e2 1d 3e 70 3a 73 be 0e 50 ad bd
       0.06657391 0.15418255 -0.23752761 -0.08462535
000390 2d 1a a7 bc fc 67 6c be f9 6b 02 3e 8a ab 2f 3d
       -0.020398224 -0.23086542 0.12736501 0.0428882
0003a0 f8 4c 25 3e eb 4b e0 3d c1 76 74 3e 03 ed 42 3e
       0.16142642 0.1095198 0.23873426 0.19035725
0003b0 ea e8 ce 3c 30 65 48 bd 4a 72 8a 3d 57 56 f0 bd
       0.025257546 -0.048924625 0.0676008 -0.11735218
0003c0 00 56 62 be 6d 77 f6 be 5c 10 90 be ba 52 1c be
       -0.22103119 -0.4813799 -0.2813748 -0.15265933
0003d0 4c 14 da be a1 71 bc bd f3 97 fb be 6e ff f0 3d
       -0.4259361 -0.092013605 -0.49139366 0.11767469
0003e0 dc a1 a2 3e f7 09 a0 bd 12 62 fa 3d 57 16 5e 3e
       0.31764114 -0.07814401 0.12225737 0.2168821
0003f0 f9 29 ee bc f4 e6 17 3e b4 10 39 be f3 8c 12 bd
       -0.029072748 0.14834195 -0.18072778 -0.03577895

sequential/conv2d_1/Conv2D f4 [64, 3, 3, 32]
000000 65 62 70 3e df 6d 02 3e 02 aa d2 bd 3b f2 42 3b
       0.23475035 0.12737225 -0.10286333 0.0029746431
000010 82 be 49 be 3a 86 ee 3d 03 52 60 3d 80 cc b1 3c
       -0.19701579 0.116466954 0.054765712 0.021703959
000020 23 b9 ba 3d 09 40 b3 bd 76 a6 04 3d fa 25 15 be
       0.09117343 -0.08752448 0.032385312 -0.14565268
000030 e5 be b7 3d c5 1d 97 be fa a7 7d bc ed 9a bd bd
       0.08971957 -0.295149 -0.015481943 -0.092580654
000040 70 5e c7 3c 9b ff 6f bc 30 63 62 3e 42 a1 f9 3b
       0.024337023 -0.014648343 0.2210815 0.0076181004
000050 ba fb a4 3d f9 86 12 3e 1f 7d 1a 3e eb 4b 07 3e
       0.080558255 0.143093 0.15086792 0.13212554
000060 9d be 56 3e 9c c5 21 3e 76 1b 9c be 90 8d df 3d
       0.2097115 0.15798038 -0.304897 0.10915673
000070 40 45 55 3e f8 d6 71 3e fc 37 b4 3d 72 ec f8 3c
       0.20827198 0.2361716 0.08799741 0.030386183
000080 90 b3 6a be 7b af e2 bd 87 e0 fe bd 8e dd 8d be
       -0.2292006 -0.110686265 -0.12445169 -0.27708095
000090 36 44 a0 bc 98 f0 36 3c 5c 2d 07 3e 73 f6 0d 3e
       -0.019563776 0.01116576 0.13200897 0.13863544
0000a0 12 b1 6e 3d 49 3f aa bd 52 be 59 3e fc 2d 1d be
       0.058274336 -0.08312852 0.21264008 -0.15349573
0000b0 7c dc 49 3e 25 fa 98 3a 1e 29 00 3d 4d 07 8d bd
       0.19713014 0.0011671229 0.031289212 -0.06886158
0000c0 b5 2a 3a 3e 02 47 66 3c 02 14 98 3b 0e e9 87 bd
       0.18180354 0.0140550155 0.004641057 -0.066362485
0000d0 d4 4d 64 bd b8 9c 02 3e e6 48 36 3d b4 47 f1 3c
       -0.055738285 0.12755096 0.044503115 0.029453136
0000e0 2a 48 a9 3d 2b 7c 83 bd 1e de 49 bc e3 08 3a 3e
       0.08265717 -0.064201675 -0.012321023 0.18167453
0000f0 40 46 ce bc 9f 95 b5 3d 40 af 1f 3e 5b be 15 3e
       -0.025179982 0.088664286 0.15594196 0.14623396
000100 e1 fb 3f be a1 e5 58 be 2c fb 15 be 60 15 8c bb
       -0.18748428 -0.21181346 -0.14646596 -0.004275009
000110 a3 18 0e bd cb 21 be bd ad 12 4c bb e2 96 4e be
       -0.034691464 -0.09283789 -0.0031139061 -0.20174745
000120 7a 6e 32 bd 76 78 26 be 25 3b 56 be 26 8c ec bd
       -0.04356239 -0.1625689 -0.20921 -0.11550169
000130 51 c4 e1 bb 56 1b c7 bd f9 c3 70 3c c0 47 31 bd
       -0.006889858 -0.09722011 0.014695161 -0.043281317
000140 ff 2a 87 bc f8 0e 30 be f9 fa e3 be c7 3e 7f be
       -0.016499994 -0.1719321 -0.44527414 -0.24926291
000150 14 3c 75 3c 3a 12 92 be ce 90 1d be 8b ac 36 be
       0.014967937 -0.2852953 -0.1538727 -0.17839257
000160 c3 dc 64 be 51 7e b0 be c5 15 1e bd a7 20 0c be
       -0.22349839 -0.34471372 -0.03859498 -0.13684331
000170 ff c0 e5 bd ea d9 33 be b6 76 6a bd 99 84 a9 be
       -0.11218452 -0.17563596 -0.057242118 -0.33108976
000180 6a 71 f8 3c 88 10 93 3e 3c b9 7a 3e 83 cf 2d 3d
       0.030327518 0.2872355 0.24484724 0.042434227
000190 06 e9 77 3e 5d 2e 09 3e 7b 50 4d 39 02 3d 8f 3c
       0.24209985 0.13396592 0.00019580305 0.017485145
0001a0 3b ba 03 3d 6d b4 41 3e 39 59 d3 bd b4 20 bc 3e
       0.032160025 0.18916483 -0.10319752 0.367437
0001b0 27 24 95 3c ca d8 83 3e 76 da 10 bc 3e 6a 92 3e
       0.018205715 0.25751334 -0.008841148 0.2859668
0001c0 fb 3a 8f 3d 8f 0f 2e 3e 04 f9 27 be e9 8b 86 be
       0.069936715 0.16998123 -0.16403586 -0.26278618
0001d0 bb 47 4a bd 00 99 6d be de bf 8c bc d2 ca 18 bd
       -0.049384814 -0.23202896 -0.017181333 -0.0373028
0001e0 25 69 14 be 17 19 05 be 98 b1 60 3e ab 29 89 bd
       -0.14493234 -0.12997852 0.21942747 -0.06697401
0001f0 b9 3e 9d bc e0 d3 0a 3e d0 0b bb 3d b8 69 04 3e
       -0.019194948 0.13557386 0.091331124 0.12930954
000200 62 78 37 be aa 9c 4f be 77 3f 0a 3e 35 d2 1a 3e
       -0.17917016 -0.20274606 0.13500772 0.1511925
000210 fd 05 f1 3d c0 74 2b 3d 62 e7 e4 bd ea 5e a4 3c
       0.1176872 0.04185939 -0.11176945 0.02006479
000220 03 14 4c 3c c4 c6 be 3d 11 24 80 be 0f 9a d5 bd
       0.012455943 0.09315255 -0.25027516 -0.10429775
000230 74 1b 10 3e 9a c2 62 3e 92 3f a1 3c aa 0f ca 3d
       0.14072973 0.22144547 0.019683633 0.09866269
000240 47 e8 6d bc d4 38 ee bc f0 00 30 be a0 d9 a8 be
       -0.014520711 -0.029079832 -0.17187858 -0.32978535
000250 fd e7 92 bc 2d 7b e7 bd b6 92 80 bc 57 44 be bd
       -0.017932886 -0.11302791 -0.015694957 -0.092903785
000260 16 f5 be bd 41 84 47 3d e0 16 2b 3e 9e c6 12 3e
       -0.0932409 0.04871011 0.16707945 0.14333579
000270 9c a5 3a be 73 89 ef 3c 37 4a 23 be 01 44 12 bd
       -0.18227237 0.029240346 -0.1594628 -0.035709385
000280 22 9a 8a be 78 25 a3 be 4f 03 73 be f4 45 1e be
       -0.2707072 -0.31864524 -0.23731731 -0.15456372
000290 74 ab 92 be c2 33 59 bc 67 ae 79 3b 11 f0 b6 bd
       -0.28646433 -0.013256969 0.0038098337 -0.08932508
0002a0 b0 07 5d bd cd 78 a8 be a6 0d 84 be e8 db 82 be
       -0.05396241 -0.32904664 -0.25791663 -0.255584
0002b0 59 9f bd bc 86 13 a7 be 8e 9c ea bc 12 df 88 be
       -0.023147272 -0.32632083 -0.028639104 -0.2673269
0002c0 da 43 f0 3d 4e a1 e7 bd 6e e2 46 be 00 03 1e be
       0.11731692 -0.11310063 -0.19422314 -0.15430832
0002d0 7f d5 94 bd 9a 01 08 be a8 00 75 bd 00 c4 43 be
       -0.07267284 -0.13281861 -0.05981508 -0.19117737
0002e0 f1 ab 66 be cb 59 89 be 6a 53 5d be 85 6a 06 be
       -0.22526528 -0.2682632 -0.21613851 -0.13126571
0002f0 b2 a1 b8 bd 5b 17 06 be 5e b1 8e 3c cd 8a 24 be
       -0.09015216 -0.13094847 0.01741856 -0.16068573
000300 0f 47 9e be 33 ad 3f bd 61 67 03 bc bb 6b a5 3e
       -0.30913588 -0.046796035 -0.008020253 0.32308754
000310 d3 de 50 3d bb 6e 93 be 5f b0 37 be b7 ae c2 be
       0.05099375 -0.28795418 -0.17938374 -0.38023922
000320 8b 0c 81 be 91 fd 8b 3d fb 11 8b be 56 19 a0 bc
       -0.25204882 0.06835473 -0.27162156 -0.019543331
000330 bd e1 4a be a2 54 41 3e e1 28 04 be 89 e9 19 3b
       -0.19812675 0.18879941 -0.12906219 0.0023485145
000340 8b d2 3d be 24 8d 20 be 9d b7 c4 3d 13 6e da bc
       -0.18537347 -0.15678841 0.09605334 -0.026663816
000350 47 9d 9e 39 9d 13 59 bd e3 ef 3f bd 27 68 3b be
       0.0003025329 -0.05299722 -0.046859633 -0.1830145
000360 87 98 88 bc 68 41 12 3e 32 c9 37 3e e1 0b da 3d
       -0.016674293 0.14282763 0.17947844 0.10646797
000370 bc 72 9a be 6e a0 5f be 14 b4 50 be 7e e0 7b 3e
       -0.3016566 -0.21838543 -0.20381194 0.24597356
000380 40 04 aa be 16 bd a8 bd af be 0c be 60 82 00 3d
       -0.33206367 -0.0823919 -0.13744615 0.031374335
000390 ce 9e 40 be ec 63 51 3d e0 7c 3c be b5 49 a8 be
       -0.18810579 0.051120684 -0.18407011 -0.32868734
0003a0 9e 64 16 bd e2 47 59 bd 5c 2d 7a 3d 20 d6 64 be
       -0.03671705 -0.05304707 0.061078414 -0.22347307
0003b0 69 e7 3e be 78 14 3e bd c8 45 cd bd cf 3e 38 be
       -0.18642963 -0.04640624 -0.10023075 -0.1799271
0003c0 f8 68 22 bd 46 d3 94 bd de 97 38 3d cf ef 18 bd
       -0.039650887 -0.0726686 0.045066707 -0.037338074
0003d0 06 ed c6 bd 87 0b d0 bc 3d 24 7c bd 3d d7 4e bc
       -0.097131774 -0.025396122 -0.061557997 -0.012624559
0003e0 60 ff 0d be 84 aa 5c 3d de 86 87 3d d9 0f 0b 3d
       -0.13866949 0.053873554 0.06617521 0.03395066
0003f0 75 25 b4 bd 80 d4 be bd 83 7b 80 bd 14 24 92 3d
       -0.08796207 -0.09317875 -0.06273558 0.071357876

sequential/conv2d_2/Conv2D f4 [64, 3, 3, 64]
000000 4d fb a4 bd 7f 46 d5 3c 4e 8a 5d bd 47 b4 f1 3c
       -0.08055744 0.026034592 -0.054086976 0.029504908
000010 40 11 f5 bb 40 bf c8 bc 3a f2 7d bd 87 31 07 bc
       -0.007478863 -0.024505258 -0.061998583 -0.008251554
000020 d1 0b a8 3c fb 77 cb bc 0a 3f 8d 3c fc ad 9a 3c
       0.020513447 -0.024837485 0.017241973 0.01888179
000030 c2 47 84 3d c9 27 4c 3d 04 8f c0 bd fd fa 8f bd
       0.06458999 0.04984263 -0.09402278 -0.07030294
000040 44 2d 86 bd 21 04 f8 bb 84 fe ab 3c ae 9c 00 bd
       -0.065516025 -0.0075688516 0.020995386 -0.03139942
000050 b7 f2 07 bd 41 3f a0 3c ac be 18 3c 02 c1 ba bd
       -0.033190455 0.019561412 0.0093228035 -0.091188446
000060 65 38 0f 3d 10 76 89 bd 8f 77 f7 3c 0a e0 48 bd
       0.03496589 -0.06711972 0.030208377 -0.049041785
000070 cc 3e a1 bd 73 b4 ed bc 5e ce 03 bd 00 e5 02 bc
       -0.07873306 -0.029016709 -0.03217923 -0.007989168
000080 04 0e c3 bd f1 c5 14 3c 64 3c 8e bd 03 46 c3 bc
       -0.09524158 0.009080396 -0.06945112 -0.023837095
000090 d9 0c 5f bd 6f 86 ae bd 70 ce f8 3c 40 9d 81 bb
       -0.05445561 -0.08521735 0.030371875 -0.0039555132
0000a0 d4 f4 79 bc 2c 9f da bb 4c 92 14 bd 16 66 22 bd
       -0.0152561255 -0.006671807 -0.036272332 -0.039648138
0000b0 4b e4 13 bd bb f0 46 3d 11 9a 8f bd 45 61 b4 bd
       -0.03610639 0.048569422 -0.07011808 -0.08807615
0000c0 95 4a 82 bd 43 df a3 bd 61 23 5e bc 92 2a 94 bd
       -0.06361882 -0.08001568 -0.01355824 -0.07234682
0000d0 6c 56 5c bc 49 3b cb bc 19 aa cb bc 5c de 7f bc
       -0.013448339 -0.024808543 -0.024861382 -0.015616979
0000e0 d9 02 92 bd ed 58 1d 3d 8f 1b 3e 3b 96 76 4a bd
       -0.071294494 0.038414884 0.0029008125 -0.0494295
0000f0 2b 2b 25 bd 47 74 ab bc 9c 3c 87 bd cc 27 68 bd
       -0.04032437 -0.020929469 -0.06603357 -0.05667858
000100 39 b4 93 bb 9a 15 2d 3d b0 ec f2 3c 21 bd 8a bc
       -0.004507568 0.04225693 0.029653877 -0.016935887
000110 d8 30 81 3c 03 c8 a7 bd c5 e7 8c bd 4e c4 65 bd
       0.01577036 -0.08192446 -0.06880144 -0.056095414
000120 ad 47 d0 3c 35 8e 13 bd 82 fd df bb 2f 5a ac bd
       0.025424803 -0.03602429 -0.0068356404 -0.08415639
000130 6a 7c e1 bc 15 49 d5 3c 83 fb a5 bd c4 46 63 bd
       -0.027525146 0.026035825 -0.08104613 -0.05548741
000140 98 87 84 3d 11 ac 80 bd 4a 7b a5 bc de 4b 57 bd
       0.06471175 -0.06282819 -0.02020039 -0.052562587
000150 55 dc fe bc 55 14 d3 bb 0d ae 1e bd 11 ed a4 bd
       -0.031110922 -0.0064416328 -0.038740207 -0.08053029
000160 78 09 27 bd 2c 7a 0e 3d 40 79 11 bc 90 44 02 bd
       -0.040780514 0.03478448 -0.008879006 -0.031803668
000170 b9 15 62 bc 73 91 5a 3d 85 51 75 bd 64 40 82 3c
       -0.013799124 0.053361367 -0.059892196 0.015899844
000180 a9 1c 6a 3d a1 3f a6 bd a5 a1 0f 3d 2f dc 87 3b
       0.05715624 -0.08117605 0.035066266 0.004146121
000190 16 b0 75 bd f9 6b 5f bd 5f 29 1d bd f9 63 a7 bd
       -0.05998238 -0.05454633 -0.038369533 -0.08173365
0001a0 90 1e 19 3d 69 b2 78 bd 4d 9b c7 bb f4 1f bb bd
       0.037382662 -0.06071702 -0.0060915113 -0.09136954
0001b0 e7 f4 99 bb 6d a9 1d 3d 81 54 ed bc 77 18 12 bd
       -0.004698384 0.038491655 -0.028970959 -0.035667863
0001c0 62 72 84 bd 2d d1 84 bd 13 a6 95 bc ff 2b a3 3c
       -0.06467129 -0.064852096 -0.018267667 0.01991844
0001d0 f7 7c 37 3c 95 e5 2c 3c 48 af 60 ba 33 8c 97 bd
       0.0111992275 0.0105527835 -0.0008571041 -0.07399788
0001e0 b5 5b a8 bd 23 8d 9b bd d8 e2 a8 bd 39 18 66 bd
       -0.08220617 -0.07595279 -0.08246392 -0.056175444
0001f0 1d e1 d0 3c 91 86 0a 3d 66 0f 30 bd cc 11 85 3d
       0.025497967 0.03381974 -0.042983435 0.06497535
000200 a7 73 b8 bd 23 a8 5f bd 83 60 3b 3d 5c ae de bc
       -0.09006434 -0.054603707 0.045746338 -0.02718275
000210 43 67 23 bd 32 20 b2 bc d4 6b 8e 3d 8d 50 11 3d
       -0.0398934 -0.021743868 0.0695416 0.03547721
000220 03 fd 13 bd 58 bf eb 3b 44 f1 b5 3c 1f 49 07 bd
       -0.036129963 0.007194441 0.022209771 -0.033028718
000230 4f b7 92 bc fa 89 15 bd f8 b0 14 3d 62 cb 60 bd
       -0.017909674 -0.036508538 0.036301583 -0.05488146
000240 c6 28 31 bd 2f f3 7c bd 58 29 3c 3c b9 f1 d6 bc
       -0.043251775 -0.061755355 0.0114844665 -0.02623831
000250 91 73 46 bd 9a b5 12 3b 02 fe cd bd d0 30 30 bd
       -0.048450056 0.0022386075 -0.10058214 -0.0430153
000260 87 84 38 bd 0f 8b 4c bd 7b b1 43 3c 1f ba 45 3d
       -0.045048263 -0.049937304 0.01194417 0.048273202
000270 2b c4 f9 3c 70 4a 66 bd 35 78 d9 3c 2f e4 79 bd
       0.030489048 -0.056223333 0.026546577 -0.06100863
000280 ee 97 f4 bd 99 cc 79 ba 77 15 c1 bc 5c e9 f0 bc
       -0.11943041 -0.00095290836 -0.023569806 -0.02940815
000290 e3 34 49 3d 04 df 1d 3c da 64 86 3c ed 5f bf 3c
       0.049122702 0.009635691 0.016405512 0.02336117
0002a0 ec ee a9 bd 67 71 b5 3c 91 2e 95 3c 21 d7 44 3d
       -0.08297524 0.022148801 0.018210681 0.048056725
0002b0 aa 89 53 3d de da 9a 3c ab 11 7c bd 12 05 47 3d
       0.05164496 0.018903192 -0.061540287 0.04858882
0002c0 3d 75 8a 3c d0 1c 7e bd 1f 3c e8 3c 51 c6 50 bd
       0.016901607 -0.062039196 0.02834898 -0.05097038
0002d0 45 d6 4f bd 8d 5f 29 3d ea bd e5 bc 34 7c d4 bd
       -0.050741453 0.04135089 -0.02804466 -0.10375252
0002e0 a7 4f 80 bb 78 99 2e 3d 63 20 40 3d 37 13 2c 3d
       -0.0039157453 0.042626828 0.046905886 0.042010512
0002f0 6a 6c 02 bc 99 bf e5 bb 18 a4 48 3c b4 dd 97 bc
       -0.007960418 -0.0070113656 0.012246154 -0.018538333
000300 df 14 f5 bb 29 8d b9 bd fb d4 96 bd 9e bb c8 3c
       -0.0074792947 -0.09060127 -0.073648416 0.024503525
000310 bb 12 1e bd e6 b5 25 3c 3a 1a 0b 3d 76 06 a3 bd
       -0.03859208 0.010114169 0.03396056 -0.07960217
000320 2a 26 5e 3d 2d 14 81 bd a8 d4 0e 3d b1 c6 93 bc
       0.054235615 -0.06302676 0.034870774 -0.01803908
000330 a2 9d 72 bc 6e 9d 53 3d cb be e7 bc 12 57 d0 3c
       -0.01480809 0.05166381 -0.02828922 0.025432143
000340 3d b1 dd 3c 22 8e 28 3d 97 9b 1d 3d fa 2a 2c 3d
       0.027062053 0.041151173 0.03847846 0.042033173
000350 60 b8 5a bd ec ed 13 3d 0c 0a 02 3c 55 8f 34 3c
       -0.05339849 0.03611557 0.007936966 0.011020501
000360 81 95 29 3b 13 28 02 bd a1 15 5f bd 7b 75 d4 bc
       0.0025876465 -0.0317765 -0.054463986 -0.025934925
000370 9a 06 b2 bc 7e 46 e1 bc 69 bb 5e bd 74 7c 87 bd
       -0.021731663 -0.027499434 -0.054377947 -0.066155344
000380 c2 5d 16 3d 9f 30 83 bd f6 bd 5f bd b8 8f 82 3d
       0.03671051 -0.06405758 -0.05462452 0.063750684
000390 08 5f 99 3a 9a 5a 0e bd 4b a4 b4 bd 2b dc 42 3d
       0.0011701295 -0.034754373 -0.08820399 0.04757325
0003a0 c9 ea aa bd 42 27 59 bc 8f 28 c3 bc 17 04 26 bd
       -0.08345563 -0.013253989 -0.02382305 -0.040531244
0003b0 0d 5e e1 bb a6 83 45 bd ae c1 dd bd 0f 96 3b bd
       -0.006877667 -0.048221253 -0.10827957 -0.045797404
0003c0 db d3 21 3d a2 3b 44 3c 41 71 cf 3c c5 0f 54 bd
       0.03950868 0.011977108 0.025322558 -0.05177285
0003d0 10 83 f4 bc 66 46 db ba 0e 42 b0 3c e4 cf a4 bd
       -0.029847652 -0.0016729354 0.021515872 -0.080474645
0003e0 22 a4 83 3c e8 6c 1e 3d d7 f9 be bc 78 ab 42 3d
       0.016069476 0.03867808 -0.023312492 0.047526807
0003f0 d3 9f af bd 27 6f 83 3c 10 ef ac 3b 85 22 bb bc
       -0.08575406 0.016044213 0.005277522 -0.022843609

sequential/dense/BiasAdd/ReadVariableOp f4 [64]
000000 11 06 a2 3b 85 8d 11 bd 56 7d 59 bd 4d 98 f4 bd
       0.004944571 -0.035535354 -0.053098045 -0.119431116
000010 b0 53 18 3b 96 6b b0 bc ea a4 fa 3d 3f 47 84 bd
       0.002324324 -0.021535676 0.12238486 -0.064589016
000020 56 0e 25 3c 0e fc 7b bd 55 aa 21 bd 97 a4 47 bd
       0.010074219 -0.061519675 -0.039469082 -0.04874095
000030 b8 13 44 3d 0a ee 34 bc 3e f0 b6 3d 49 03 3a bb
       0.047870368 -0.011043081 0.08932541 -0.0028383306
000040 15 70 3d 3d 85 ac d9 3c 14 e3 55 3c 63 43 0c 3e
       0.046249468 0.026571522 0.013054628 0.13697581
000050 0e eb 03 3e 16 b0 9f bc e7 cb d1 3d f9 40 34 3d
       0.12882635 -0.019493144 0.102439694 0.044007275
000060 6b 15 8d bd d9 d5 11 bc b2 a3 54 3d 41 86 6c bc
       -0.06888851 -0.008901083 0.051913925 -0.0144363055
000070 18 da 57 bc 85 36 a4 bc d4 4b 83 3d b3 f5 12 3d
       -0.013174556 -0.020045528 0.064109474 0.03587885
000080 c4 b2 53 bd 9c 77 b9 3c 04 61 e2 bd 48 03 52 bc
       -0.051684156 0.022640042 -0.110536605 -0.012818165
000090 c2 fe 8b 3c 92 07 21 bd 74 7d 36 3d 81 2a 59 3c
       0.017089251 -0.03931386 0.044553235 0.013254763
0000a0 b0 65 06 be 8d 65 80 bd f4 f5 25 bd d3 fe 8b bc
       -0.13124728 -0.06269369 -0.040517762 -0.017089283
0000b0 f3 77 e6 3c 5a ca 0a 3c 69 f0 e9 bc f5 89 23 bc
       0.028133368 0.008471096 -0.02855702 -0.009981622
0000c0 fb 29 98 bc b5 ba c8 bb 20 38 b0 3d 68 00 c9 bd
       -0.018574705 -0.006125773 0.08604455 -0.098145306
0000d0 1d e4 36 3a 7e 13 4b bd f0 ad 5c bd f0 10 da bc
       0.00069767406 -0.049579136 -0.053876817 -0.026619405
0000e0 05 0d b0 3d 90 77 c6 bb ab cc 55 bd ec ef b7 bc
       0.08596233 -0.0060567334 -0.05219714 -0.02245327
0000f0 fe e1 66 3d c9 ce 53 bd 9e 48 1b bd fe ec 30 3e
       0.056367867 -0.051710878 -0.03791105 0.17277905

sequential/dense_1/BiasAdd/ReadVariableOp f4 [10]
000000 10 c8 b4 bd 68 62 0e 3e 04 24 e4 bd 4b 07 9d bd
       -0.088272214 0.13904727 -0.11139682 -0.07667407
000010 4f d2 44 3d e9 d6 99 bd 89 54 c3 bd bd 9f e0 3c
       0.04805213 -0.07511694 -0.09537608 0.02741992
000020 7d 44 15 3e ce d5 c8 3c
       0.14576907 0.024516013

sequential/dense/MatMul f4 [64, 576]
000000 4b be 61 3d a0 54 4b 3c 41 32 43 3d f3 47 61 bd
       0.05511312 0.012410313 0.047655348 -0.055000257
000010 4c cc 44 3c e7 30 9d 3d 2a d9 f7 bd df 4a 4b 3c
       0.012011599 0.07675343 -0.12101968 0.012407987
000020 64 4a 93 bd 91 22 4b 3c b1 04 ad bc db 83 a1 3d
       -0.07191923 0.012398378 -0.021120401 0.078864776
000030 74 18 82 be dd 45 9a bc c3 f7 0c be 43 c4 05 3d
       -0.2540928 -0.018832142 -0.13766389 0.032657873
000040 f0 d1 6e 3e 6a dd ee bc 05 84 88 3d f6 da dc bd
       0.23322272 -0.029158313 0.06665806 -0.10783951
000050 7a aa 52 be 89 dc 3a be 9d 00 43 be f9 f9 8f 3e
       -0.20572844 -0.1824819 -0.19043203 0.28120402
000060 16 5b 6e be 10 ef b0 3d 68 01 81 bc 1b 4f f9 3d
       -0.23276934 0.086393476 -0.01574774 0.12173291
000070 bb 70 3f 3e 95 7c 6a 3e d0 27 c5 bc 11 8b 59 3e
       0.18695347 0.22899087 -0.024066836 0.21244456
000080 1a 37 1c 3e 68 a9 c2 bc eb d7 2e be ee 93 8a 3d
       0.15255395 -0.02376242 -0.17074554 0.067664966
000090 91 b2 37 3d b4 5c fa bd 9d c3 72 bd 8a b1 3a 3d
       0.04484803 -0.12224713 -0.059268583 0.04557947
0000a0 87 5d 68 3e 39 6d 15 3e d4 bc 49 be 01 29 66 bb
       0.22691928 0.14592446 -0.19700938 -0.0035119655
0000b0 1d 6a 71 bc 1f 08 8e be 6b bb e6 bd b2 1a b9 3c
       -0.014734772 -0.2774057 -0.11266216 0.022595737
0000c0 78 a6 1c 3e 02 d9 7a 3d a9 c3 94 3d c5 dc 13 be
       0.15297878 0.06124211 0.07263882 -0.14439686
0000d0 56 d7 c7 bb 51 e1 24 be cf 6a fd 3d 7f c4 aa bd
       -0.006098668 -0.16101576 0.12373888 -0.0833826
0000e0 4c 80 05 be 33 97 cb bc bf 36 c0 bc c7 6e fb bd
       -0.13037223 -0.02485237 -0.023463605 -0.122769885
0000f0 de 3c d5 3d 67 e0 3e bd 7e b2 9e 3e bb b6 4d 3c
       0.10412 -0.046600726 0.30995554 0.012555773
000100 89 99 b4 3d 7e da 37 bc 65 81 0e 3d d4 04 83 bd
       0.08818347 -0.011221526 0.03479137 -0.06397405
000110 7d 63 96 be c8 8e 9c bd 05 95 d7 bd 5c 38 11 3e
       -0.2937278 -0.07644421 -0.1052647 0.14181656
000120 04 cf 16 be 0f b5 c5 bd e1 2f 6b bc 53 ea 93 bd
       -0.14727408 -0.09653675 -0.014354677 -0.07222428
000130 a6 dd b4 3b 88 b2 4c ba b1 44 a1 bc d2 71 98 3d
       0.0055195866 -0.00078085857 -0.019686075 0.074435845
000140 92 79 15 bd 45 71 49 be 9f cf 70 bd cd e3 18 be
       -0.03649289 -0.19672115 -0.058791753 -0.14930649
000150 bd 64 5f 3b a1 c2 b9 3d d4 fe da 3c 10 ea 93 3d
       0.0034087144 0.09070326 0.02673284 0.07222378
000160 4c 4c 27 be f1 c9 d6 3c 32 96 24 3e e4 41 fc bd
       -0.16337699 0.02621934 0.1607292 -0.12317255
000170 e0 a5 02 3e 81 9b 47 3d 89 f7 c9 3d 0e bb 12 3e
       0.12758589 0.048732284 0.09861667 0.14329168
000180 21 3b c6 3d 52 bc db 3c 9e 61 ad 3d 14 64 cf bd
       0.09679247 0.026823197 0.084658846 -0.1012651
000190 74 94 15 bd 73 d1 bd bc 0e d0 4a be b2 50 e2 3d
       -0.03651853 -0.023171162 -0.19805929 0.11050548
0001a0 6b 92 72 3d 31 03 60 bd 0a 6a 86 be 95 ea f5 3d
       0.059221666 -0.054690544 -0.26252776 0.120076336
0001b0 9d ec 4e be 97 39 92 3d 8d fc a5 bd 87 43 05 be
       -0.20207448 0.07139891 -0.08104811 -0.13014041
0001c0 d6 a7 f8 bd e4 3f 8d bd ab 2c 44 3d b6 1d e4 3d
       -0.12141387 -0.06896952 0.04789416 0.111384794
0001d0 56 d4 d6 3c 36 31 92 3d 7a e0 0f be 65 89 81 bd
       0.026224297 0.071382925 -0.14050475 -0.06325034
0001e0 68 77 b4 3d 45 f4 15 bd e1 e5 02 be 09 21 36 be
       0.088118374 -0.036609907 -0.12783004 -0.1778604
0001f0 0e 6a 32 be 4d b4 81 bd a8 21 2a bd 04 92 b7 bd
       -0.17423269 -0.06333218 -0.041536003 -0.08963397
000200 9c d0 94 bd 4c ff 91 bd 6a 03 43 bd 8a 11 56 3c
       -0.072663516 -0.07128772 -0.047610678 0.013065705
000210 12 3d cf be f3 66 dc bd 8d f7 09 be fd 56 42 3d
       -0.4047628 -0.107618235 -0.1347334 0.04744624
000220 15 ef 90 3d 22 95 3a be fe 9a 2a 3d 5b 37 a4 3c
       0.07076851 -0.18220952 0.04165172 0.020045927
000230 48 8d ac bd d6 0d 4d be 25 c9 e1 be 71 16 ff 3c
       -0.08425385 -0.20024809 -0.44098774 0.03113863
000240 53 08 90 3d c8 9d 83 3c 05 03 bd 3c 4b e1 c0 bc
       0.07032838 0.016066447 0.023072729 -0.023544928
000250 66 50 97 be 10 ef 36 be fe 2c 55 3d 78 93 2f 3d
       -0.29553527 -0.17864633 0.05204486 0.042865247
000260 7b 1c 22 ba c2 43 80 bc 38 8b 9e 3d fc e3 d2 bd
       -0.00061840535 -0.01565731 0.077413976 -0.10297391
000270 1a 93 b6 bc da 40 c8 3d 05 55 d5 3d 9a 05 14 3e
       -0.02228694 0.097779945 0.10416607 0.14455262
000280 df 7c 1a be 82 35 93 3d bf 46 a5 bd 58 48 4d be
       -0.15086697 0.0718794 -0.08070134 -0.20047128
000290 54 9b 63 bd 15 ab 62 3d 66 e9 73 be a5 6b 13 3c
       -0.055568054 0.055338938 -0.23819503 0.008997832
0002a0 73 72 b4 bc 3e d6 e1 bd 2e 9c 08 be 62 2e 86 3e
       -0.02202723 -0.110271916 -0.13340828 0.26207262
0002b0 03 af ab be b7 cd 50 3d 71 81 4d 3e db e8 56 3c
       -0.3353196 0.050977435 0.20068909 0.0131170405
0002c0 12 ed a7 bc c9 55 ee 3d 3d 72 df bc 80 60 00 be
       -0.020498786 0.11637456 -0.027276153 -0.12536812
0002d0 7b 3a 27 be 81 73 39 be 41 52 1a be cf db c5 3d
       -0.16330902 -0.18110467 -0.1507044 0.09661066
0002e0 36 f4 55 3d 78 52 79 3e 4c 38 6b 3e e5 86 4c bd
       0.05223485 0.24347866 0.22970694 -0.049933333
0002f0 31 6d 9d 3d cf 0d 92 3c db c9 ab 3c 5d d2 c8 3d
       0.07686842 0.01782885 0.020970276 0.098057486
000300 76 60 c0 bd 72 31 d6 bc ed 04 67 3d 5a 0f dc b7
       -0.093933985 -0.026146624 0.056401182 -2.6233192e-05
000310 a5 86 4c be 0e 01 a8 3d 5c a2 67 bd 95 74 f1 3c
       -0.19973238 0.08203326 -0.056551322 0.029474536
000320 07 89 0c be 44 30 fc bd f6 c8 f9 bc 42 fa 5c 3d
       -0.13724147 -0.123138934 -0.030491333 0.053949602
000330 48 16 84 3d 6f e4 21 be c6 44 9f 3d 79 0d 86 3d
       0.06449562 -0.15809797 0.07776789 0.065455385
000340 d2 57 24 3e fc ea 29 bd f7 e8 3a be c6 7a d6 bd
       0.16049126 -0.041483864 -0.18252932 -0.10472636
000350 4c 20 63 bd ca 84 59 be 3b df e9 bd ff 1b 2d 3e
       -0.055450723 -0.21242061 -0.11419531 0.16905211
000360 aa b1 19 3e 9f 8c c2 3d 89 41 18 bd e3 65 42 be
       0.1500918 0.094994776 -0.037171874 -0.18984179
000370 72 7a 2b 3e 64 46 72 bd 4e 05 4a 3e a1 c1 30 3d
       0.16745928 -0.05914916 0.19728586 0.04315341
000380 4e 19 4d be 54 60 15 3d 17 98 bc 3c b7 2a 09 be
       -0.20029184 0.03646882 0.02302174 -0.133952
000390 7e cd ed 3c d2 5a f1 3d 13 b3 eb 3c f0 af bb bd
       0.02902865 0.11784901 0.028771913 -0.09164417
0003a0 0c 7b ee 3d e7 87 f0 bd 09 91 98 bd b0 74 13 be
       0.11644563 -0.11744671 -0.07449538 -0.14399981
0003b0 16 3e e4 3c 9e 8e 6e bd f3 7d 3e 3e c5 db 08 be
       0.027861636 -0.05824148 0.18602733 -0.13365085
0003c0 92 c0 d6 3d c4 fc e9 3d 7e b5 03 3c 29 cd 05 be
       0.104859486 0.11425164 0.008038877 -0.13066544
0003d0 b3 f5 b3 bd 32 b5 ac bd e4 e8 14 be 63 93 8b bd
       -0.08787098 -0.08432998 -0.14541966 -0.06815221
0003e0 a9 28 81 3d d8 64 84 bd e7 93 dd 3d 33 e9 66 3d
       0.063065834 -0.06464547 0.10819226 0.05637474
0003f0 61 db 3e 3e 40 08 bd bd 9c 19 98 3e 00 b7 4d 3e
       0.18638374 -0.09230089 0.29707038 0.2008934

sequential/dense_1/MatMul f4 [10, 64]
000000 34 28 c4 3d 1b cc 41 3e be 15 9d bc d1 58 b1 3e
       0.09577981 0.18925516 -0.019175407 0.34638074
000010 ae d6 64 be f9 a1 99 be e2 20 95 be 26 2b 8d 3e
       -0.22347519 -0.30006388 -0.2912665 0.27571982
000020 e1 86 51 be bb 59 9e 3e 55 a4 67 be 90 1b 01 be
       -0.20461608 0.30927834 -0.22621281 -0.1260817
000030 c2 91 5a be 56 60 72 3e da 38 89 be 09 7a 91 be
       -0.21344665 0.23669562 -0.26801187 -0.28413418
000040 bd 59 11 3e ab aa 86 be 87 f1 7a 3e 00 65 8e be
       0.14194389 -0.26302084 0.24506198 -0.27811432
000050 36 e5 bb bd d2 97 0b be 47 ae f3 3b d9 5b 1f 3d
       -0.09174578 -0.13632134 0.007436547 0.038905952
000060 09 2c cc 3e b2 4b 06 bf 63 4e e1 3d dc 25 63 be
       0.39877346 -0.5245925 0.11001279 -0.22182411
000070 36 8a 3c bd 77 ad 9e be 92 92 ae 3d 3d 26 3b 3d
       -0.046030246 -0.30991718 0.0852405 0.045690764
000080 be 4e 91 3e 7f 95 48 be 37 40 62 be e0 ad e0 3d
       0.28380388 -0.19588278 -0.22094809 0.10970664
000090 7d 8e 77 be 0a 54 a1 bd 7d 48 02 3f e5 12 9c 3d
       -0.24175449 -0.07877357 0.5089186 0.07620791
0000a0 2e 6e 36 be 18 e5 bf 3d 7c 1d e7 bd f7 69 a6 bd
       -0.17815468 0.09369868 -0.112849206 -0.0812568
0000b0 b9 ea 8d be 12 dd 2c 3e e8 19 a3 3d dc b4 24 3e
       -0.27718142 0.16881207 0.079639256 0.16084617
0000c0 1c 05 77 bd cc 9b b4 3b 07 26 04 be db 16 4a 3d
       -0.060307607 0.0055117365 -0.12905131 0.049338203
0000d0 dc 3f 7b 3d 58 b6 90 be 4b 55 98 be 74 a0 8d 3e
       0.061340198 -0.28264117 -0.29752573 0.2766148
0000e0 47 b1 18 bd 3a 7e 56 3e 84 e2 0d be fc fe 81 bd
       -0.03727844 0.20946589 -0.1385594 -0.063474625
0000f0 b5 ba 8c be a8 f7 98 3e 7c 80 e6 39 87 c3 02 3e
       -0.27486196 0.29876447 0.00043964747 0.127699
000100 f5 e7 f5 be db 0a 8c be ca d3 11 bd c9 d8 5f be
       -0.48028532 -0.27352032 -0.03560237 -0.2186004
000110 5b 3e 87 be 19 84 a2 3e df 35 36 bd d2 52 52 bc
       -0.2641476 0.31741408 -0.04448497 -0.012837129
000120 7f 2e b4 bd 38 30 b5 be db 70 1d 3d d3 d9 20 3e
       -0.08797931 -0.3538835 0.038437705 0.15708093
000130 db 3c 7e 3e 63 e8 ff be 5f c3 63 be 03 7b 6e bd
       0.24827902 -0.49981984 -0.22242497 -0.058222782
000140 77 da b5 be b4 a2 50 3e df c3 7d 3e 0b 22 fa 3d
       -0.35518238 0.20374566 0.2478175 0.122135244
000150 a7 0b 3e 3d 8a 9c a4 bd 1e 4c e8 3c 6f 5c 6f 3d
       0.04639783 -0.0803767 0.028356608 0.05843776
000160 3e 66 78 be 1d e3 e0 bd 9b 8f df ba 72 bb 83 be
       -0.24257752 -0.109808184 -0.0017056348 -0.25728947
000170 73 57 96 be 1b de c3 be 7e 34 94 3e cf 9f 2e 3e
       -0.29363593 -0.3825539 0.28946298 0.1705315
000180 96 22 ae be b0 ad 2c 3d b2 1f fd bd 37 da a9 be
       -0.34010762 0.04215783 -0.12359561 -0.33174297
000190 64 29 f7 bd 93 dd a2 bd cd c9 88 3e 43 3e 8f be
       -0.120684415 -0.07952418 0.26716462 -0.2797719
0001a0 af 2a e3 bc 6d f8 3b 3e 34 cc 36 3e 58 99 a7 be
       -0.027730314 0.18356486 0.17851335 -0.3273418
0001b0 0e 05 83 be d4 3d 17 3e 29 05 a4 be ac d7 a7 3d
       -0.25589794 0.1476968 -0.32035187 0.08195433
0001c0 61 00 43 3e 54 36 ff bc 2a ec 60 3e ab a7 62 be
       0.19043113 -0.031153835 0.2196509 -0.22134273
0001d0 f4 88 2f 3d 49 18 b1 be 42 53 e5 bd b4 17 16 3e
       0.042855218 -0.3458884 -0.11197521 0.1465748
0001e0 f2 57 92 3e 22 72 5f be b2 ed f6 bd 8f 6d e6 be
       0.28582722 -0.21820882 -0.120570555 -0.45005462
0001f0 05 f0 95 3e 65 54 93 bd a9 d2 d0 3d 92 16 ad 3e
       0.29284683 -0.07193831 0.1019643 0.33806282
000200 72 08 8f be dc ec 69 3e c2 ec 39 be 47 e5 aa 3e
       -0.2793613 0.22844261 -0.18156722 0.3337805
000210 ee 0d c9 be 3a 0d 78 3d eb 50 6c be 18 a0 ae 3e
       -0.3926844 0.06055949 -0.23077743 0.34106517
000220 6b de 3b 3e 45 97 8a be ea 39 86 3e c1 35 f4 bd
       0.18346564 -0.27068534 0.2621606 -0.11924315
000230 70 92 4d 3e 6b 40 b3 bd 2b f4 37 3e 12 ca 1d be
       0.20075393 -0.08752521 0.17964236 -0.15409115
000240 f7 5c 9a bd 94 60 c1 3d 1f 48 35 be 2b 25 dd be
       -0.07537263 0.09442249 -0.17703293 -0.4319242
000250 88 fa b3 be e9 f0 09 bf 25 81 da be be ca 87 3e
       -0.35152078 -0.53883225 -0.42676654 0.26521868
000260 5a 28 5f 3d c4 52 72 3e a4 a3 ac be 31 44 38 be
       0.05448184 0.23664385 -0.33718598 -0.17994763
000270 be 3d dd 3c e7 e5 66 be e2 18 29 3e 01 ac 9c 3e
       0.02700698 -0.22548638 0.16513398 0.3059998
000280 1d 4c 6a be bd fd 95 3d d3 ba b7 3e 9b bc 74 3e
       -0.22880597 0.07323787 0.35884723 0.23900072
000290 1f 30 e6 3d fe d0 34 3d 03 15 a3 be e7 c9 b5 be
       0.11239647 0.044144623 -0.31851968 -0.35505602
0002a0 45 1a b1 3c 7d 0e 6f 3e 2a a6 99 be 26 4f 02 3e
       0.021618972 0.2334537 -0.30009586 0.12725505
0002b0 a3 f1 4a bd a8 26 4f bd 32 14 a7 be fd ed 5a be
       -0.04954685 -0.050573975 -0.32632595 -0.21379848
0002c0 21 14 fa be 8d e1 fe bd 16 2d 6a be 89 e8 e6 3d
       -0.48843482 -0.12445364 -0.22868761 0.11274821
0002d0 6f 9f 30 bd 53 77 f9 bc d7 a7 03 3e 63 7e 00 3e
       -0.043120798 -0.030452406 0.12856995 0.12548213
0002e0 d6 46 b7 bd 22 9b ef bd d6 60 00 3e c8 0d 05 3e
       -0.08949058 -0.11699511 0.1253694 0.12993538
0002f0 ac 7d 1e be 15 b1 fa 3d 85 18 26 be c3 75 c5 3d
       -0.15477628 0.12240807 -0.16220291 0.09641602
000300 87 6b 27 3e a6 08 01 3e 69 c0 98 be ca 08 da bd
       0.16349612 0.12600955 -0.29834297 -0.10646208
000310 5c 11 c4 3d 5e a7 8d 3c 0d 52 c4 3d 3a b7 81 3e
       0.095736235 0.017291721 0.095859624 0.25335103
000320 4e 03 2b be 6d 34 21 3d 10 4b 90 3e 32 79 2f be
       -0.1670048 0.039356638 0.28182268 -0.17136076
000330 30 98 b1 3e e7 0a 9e be 5c 5a 5f 3d 65 a2 03 be
       0.34686422 -0.30867693 0.054529533 -0.12854917
000340 02 96 67 3e ed 4e 4d 3e 10 9c f4 3c fd b6 aa bd
       0.22615817 0.20049639 0.029859573 -0.083356835
000350 d4 03 69 3e c2 42 91 3e 52 a0 ec be 6a a2 66 3d
       0.22755367 0.28371245 -0.46216065 0.056307234
000360 6f 37 21 be c1 26 ba 3d 59 ed eb 3d af 2c 09 3b
       -0.15743802 0.09089423 0.1151988 0.0020931175
000370 e5 68 f0 bc 75 cc 1f be 6a 12 a3 be e1 d8 d8 bd
       -0.029346893 -0.15605338 -0.31849986 -0.10588241
000380 78 c0 b5 be 68 63 a1 3e 9f d9 8c bd a6 f0 4d 3d
       -0.35498405 0.31521153 -0.068774454 0.05027833
000390 0f 7a 53 3e 72 28 07 bd b7 c8 9c bd cb 09 93 3e
       0.2065203 -0.032997556 -0.07655471 0.2871841
0003a0 b1 ea 24 be 62 e4 bb bd c4 6d fe 3d f5 f9 83 3d
       -0.16105153 -0.0917442 0.1242328 0.0644416
0003b0 d5 44 b2 be b0 ef fe 3d 13 c6 03 be 5a c0 2c be
       -0.3481814 0.124480605 -0.12868528 -0.16870251
0003c0 df 28 8d be 86 58 e1 3d e4 96 cc bd b6 07 0d bf
       -0.27570245 0.11003213 -0.099897176 -0.5508989
0003d0 a5 cf 9f 3c 95 c0 ec bd 5d b2 2b bf f0 28 a7 3d
       0.019508192 -0.115601696 -0.67069036 0.08162105
0003e0 22 99 dd be 57 30 2f 3e 30 12 b2 bb 8b 1a c5 be
       -0.43280894 0.17108284 -0.005434297 -0.38496813
0003f0 51 be 0c 3e ee 5f 0d be ef 6f 13 3e 04 9e 06 bf
       0.13744475 -0.13806126 0.14398168 -0.5258486
