ComputerVision/ImageClassification/SmallNetwork/8_DeepCompression/quantized_and_pruned_model.tflite (tflite, 102184 bytes, 10 tensors)

sequential/dense_1/MatMul f4 [10, 64]
0.09577981 0.18925516 -0.019175407 0.34638074 -0.22347519 -0.30006388 -0.2912665 0.27571982
-0.20461608 0.30927834 -0.22621281 -0.1260817 -0.21344665 0.23669562 -0.26801187 -0.28413418
0.14194389 -0.26302084 0.24506198 -0.27811432 -0.09174578 -0.13632134 0.007436547 0.038905952
0.39877346 -0.5245925 0.11001279 -0.22182411 -0.046030246 -0.30991718 0.0852405 0.045690764
0.28380388 -0.19588278 -0.22094809 0.10970664 -0.24175449 -0.07877357 0.5089186 0.07620791
-0.17815468 0.09369868 -0.112849206 -0.0812568 -0.27718142 0.16881207 0.079639256 0.16084617
-0.060307607 0.0055117365 -0.12905131 0.049338203 0.061340198 -0.28264117 -0.29752573 0.2766148
-0.03727844 0.20946589 -0.1385594 -0.063474625 -0.27486196 0.29876447 0.00043964747 0.127699
-0.48028532 -0.27352032 -0.03560237 -0.2186004 -0.2641476 0.31741408 -0.04448497 -0.012837129
-0.08797931 -0.3538835 0.038437705 0.15708093 0.24827902 -0.49981984 -0.22242497 -0.058222782
-0.35518238 0.20374566 0.2478175 0.122135244 0.04639783 -0.0803767 0.028356608 0.05843776
-0.24257752 -0.109808184 -0.0017056348 -0.25728947 -0.29363593 -0.3825539 0.28946298 0.1705315
-0.34010762 0.04215783 -0.12359561 -0.33174297 -0.120684415 -0.07952418 0.26716462 -0.2797719
-0.027730314 0.18356486 0.17851335 -0.3273418 -0.25589794 0.1476968 -0.32035187 0.08195433
0.19043113 -0.031153835 0.2196509 -0.22134273 0.042855218 -0.3458884 -0.11197521 0.1465748
0.28582722 -0.21820882 -0.120570555 -0.45005462 0.29284683 -0.07193831 0.1019643 0.33806282
-0.2793613 0.22844261 -0.18156722 0.3337805 -0.3926844 0.06055949 -0.23077743 0.34106517
0.18346564 -0.27068534 0.2621606 -0.11924315 0.20075393 -0.08752521 0.17964236 -0.15409115
-0.07537263 0.09442249 -0.17703293 -0.4319242 -0.35152078 -0.53883225 -0.42676654 0.26521868
0.05448184 0.23664385 -0.33718598 -0.17994763 0.02700698 -0.22548638 0.16513398 0.3059998
-0.22880597 0.07323787 0.35884723 0.23900072 0.11239647 0.044144623 -0.31851968 -0.35505602
0.021618972 0.2334537 -0.30009586 0.12725505 -0.04954685 -0.050573975 -0.32632595 -0.21379848
-0.48843482 -0.12445364 -0.22868761 0.11274821 -0.043120798 -0.030452406 0.12856995 0.12548213
-0.08949058 -0.11699511 0.1253694 0.12993538 -0.15477628 0.12240807 -0.16220291 0.09641602
0.16349612 0.12600955 -0.29834297 -0.10646208 0.095736235 0.017291721 0.095859624 0.25335103
-0.1670048 0.039356638 0.28182268 -0.17136076 0.34686422 -0.30867693 0.054529533 -0.12854917
0.22615817 0.20049639 0.029859573 -0.083356835 0.22755367 0.28371245 -0.46216065 0.056307234
-0.15743802 0.09089423 0.1151988 0.0020931175 -0.029346893 -0.15605338 -0.31849986 -0.10588241
-0.35498405 0.31521153 -0.068774454 0.05027833 0.2065203 -0.032997556 -0.07655471 0.2871841
-0.16105153 -0.0917442 0.1242328 0.0644416 -0.3481814 0.124480605 -0.12868528 -0.16870251
-0.27570245 0.11003213 -0.099897176 -0.5508989 0.019508192 -0.115601696 -0.67069036 0.08162105
-0.43280894 0.17108284 -0.005434297 -0.38496813 0.13744475 -0.13806126 0.14398168 -0.5258486
00000000: 3428 c43d 1bcc 413e be15 9dbc d158 b13e
00000010: aed6 64be f9a1 99be e220 95be 262b 8d3e
00000020: e186 51be bb59 9e3e 55a4 67be 901b 01be
00000030: c291 5abe 5660 723e da38 89be 097a 91be
00000040: bd59 113e abaa 86be 87f1 7a3e 0065 8ebe
00000050: 36e5 bbbd d297 0bbe 47ae f33b d95b 1f3d
00000060: 092c cc3e b24b 06bf 634e e13d dc25 63be
00000070: 368a 3cbd 77ad 9ebe 9292 ae3d 3d26 3b3d
00000080: be4e 913e 7f95 48be 3740 62be e0ad e03d
00000090: 7d8e 77be 0a54 a1bd 7d48 023f e512 9c3d
000000a0: 2e6e 36be 18e5 bf3d 7c1d e7bd f769 a6bd
000000b0: b9ea 8dbe 12dd 2c3e e819 a33d dcb4 243e
000000c0: 1c05 77bd cc9b b43b 0726 04be db16 4a3d
000000d0: dc3f 7b3d 58b6 90be 4b55 98be 74a0 8d3e
000000e0: 47b1 18bd 3a7e 563e 84e2 0dbe fcfe 81bd
000000f0: b5ba 8cbe a8f7 983e 7c80 e639 87c3 023e
00000100: f5e7 f5be db0a 8cbe cad3 11bd c9d8 5fbe
00000110: 5b3e 87be 1984 a23e df35 36bd d252 52bc
00000120: 7f2e b4bd 3830 b5be db70 1d3d d3d9 203e
00000130: db3c 7e3e 63e8 ffbe 5fc3 63be 037b 6ebd
00000140: 77da b5be b4a2 503e dfc3 7d3e 0b22 fa3d
00000150: a70b 3e3d 8a9c a4bd 1e4c e83c 6f5c 6f3d
00000160: 3e66 78be 1de3 e0bd 9b8f dfba 72bb 83be
00000170: 7357 96be 1bde c3be 7e34 943e cf9f 2e3e
00000180: 9622 aebe b0ad 2c3d b21f fdbd 37da a9be
00000190: 6429 f7bd 93dd a2bd cdc9 883e 433e 8fbe
000001a0: af2a e3bc 6df8 3b3e 34cc 363e 5899 a7be
000001b0: 0e05 83be d43d 173e 2905 a4be acd7 a73d
000001c0: 6100 433e 5436 ffbc 2aec 603e aba7 62be
000001d0: f488 2f3d 4918 b1be 4253 e5bd b417 163e
000001e0: f257 923e 2272 5fbe b2ed f6bd 8f6d e6be
000001f0: 05f0 953e 6554 93bd a9d2 d03d 9216 ad3e
00000200: 7208 8fbe dcec 693e c2ec 39be 47e5 aa3e
00000210: ee0d c9be 3a0d 783d eb50 6cbe 18a0 ae3e
00000220: 6bde 3b3e 4597 8abe ea39 863e c135 f4bd
00000230: 7092 4d3e 6b40 b3bd 2bf4 373e 12ca 1dbe
00000240: f75c 9abd 9460 c13d 1f48 35be 2b25 ddbe
00000250: 88fa b3be e9f0 09bf 2581 dabe beca 873e
00000260: 5a28 5f3d c452 723e a4a3 acbe 3144 38be
00000270: be3d dd3c e7e5 66be e218 293e 01ac 9c3e
00000280: 1d4c 6abe bdfd 953d d3ba b73e 9bbc 743e
00000290: 1f30 e63d fed0 343d 0315 a3be e7c9 b5be
000002a0: 451a b13c 7d0e 6f3e 2aa6 99be 264f 023e
000002b0: a3f1 4abd a826 4fbd 3214 a7be fded 5abe
000002c0: 2114 fabe 8de1 febd 162d 6abe 89e8 e63d
000002d0: 6f9f 30bd 5377 f9bc d7a7 033e 637e 003e
000002e0: d646 b7bd 229b efbd d660 003e c80d 053e
000002f0: ac7d 1ebe 15b1 fa3d 8518 26be c375 c53d
00000300: 876b 273e a608 013e 69c0 98be ca08 dabd
00000310: 5c11 c43d 5ea7 8d3c 0d52 c43d 3ab7 813e
00000320: 4e03 2bbe 6d34 213d 104b 903e 3279 2fbe
00000330: 3098 b13e e70a 9ebe 5c5a 5f3d 65a2 03be
00000340: 0296 673e ed4e 4d3e 109c f43c fdb6 aabd
00000350: d403 693e c242 913e 52a0 ecbe 6aa2 663d
00000360: 6f37 21be c126 ba3d 59ed eb3d af2c 093b
00000370: e568 f0bc 75cc 1fbe 6a12 a3be e1d8 d8bd
00000380: 78c0 b5be 6863 a13e 9fd9 8cbd a6f0 4d3d
00000390: 0f7a 533e 7228 07bd b7c8 9cbd cb09 933e
000003a0: b1ea 24be 62e4 bbbd c46d fe3d f5f9 833d
000003b0: d544 b2be b0ef fe3d 13c6 03be 5ac0 2cbe
000003c0: df28 8dbe 8658 e13d e496 ccbd b607 0dbf
000003d0: a5cf 9f3c 95c0 ecbd 5db2 2bbf f028 a73d
000003e0: 2299 ddbe 5730 2f3e 3012 b2bb 8b1a c5be
000003f0: 51be 0c3e ee5f 0dbe ef6f 133e 049e 06bf

sequential/dense_1/BiasAdd/ReadVariableOp f4 [10]
-0.088272214 0.13904727 -0.11139682 -0.07667407 0.04805213 -0.07511694 -0.09537608 0.02741992
0.14576907 0.024516013
00000000: 10c8 b4bd 6862 0e3e 0424 e4bd 4b07 9dbd
00000010: 4fd2 443d e9d6 99bd 8954 c3bd bd9f e03c
00000020: 7d44 153e ced5 c83c

sequential/dense/BiasAdd/ReadVariableOp f4 [64]
0.004944571 -0.035535354 -0.053098045 -0.119431116 0.002324324 -0.021535676 0.12238486 -0.064589016
0.010074219 -0.061519675 -0.039469082 -0.04874095 0.047870368 -0.011043081 0.08932541 -0.0028383306
0.046249468 0.026571522 0.013054628 0.13697581 0.12882635 -0.019493144 0.102439694 0.044007275
-0.06888851 -0.008901083 0.051913925 -0.0144363055 -0.013174556 -0.020045528 0.064109474 0.03587885
-0.051684156 0.022640042 -0.110536605 -0.012818165 0.017089251 -0.03931386 0.044553235 0.013254763
-0.13124728 -0.06269369 -0.040517762 -0.017089283 0.028133368 0.008471096 -0.02855702 -0.009981622
-0.018574705 -0.006125773 0.08604455 -0.098145306 0.00069767406 -0.049579136 -0.053876817 -0.026619405
0.08596233 -0.0060567334 -0.05219714 -0.02245327 0.056367867 -0.051710878 -0.03791105 0.17277905
00000000: 1106 a23b 858d 11bd 567d 59bd 4d98 f4bd
00000010: b053 183b 966b b0bc eaa4 fa3d 3f47 84bd
00000020: 560e 253c 0efc 7bbd 55aa 21bd 97a4 47bd
00000030: b813 443d 0aee 34bc 3ef0 b63d 4903 3abb
00000040: 1570 3d3d 85ac d93c 14e3 553c 6343 0c3e
00000050: 0eeb 033e 16b0 9fbc e7cb d13d f940 343d
00000060: 6b15 8dbd d9d5 11bc b2a3 543d 4186 6cbc
00000070: 18da 57bc 8536 a4bc d44b 833d b3f5 123d
00000080: c4b2 53bd 9c77 b93c 0461 e2bd 4803 52bc
00000090: c2fe 8b3c 9207 21bd 747d 363d 812a 593c
000000a0: b065 06be 8d65 80bd f4f5 25bd d3fe 8bbc
000000b0: f377 e63c 5aca 0a3c 69f0 e9bc f589 23bc
000000c0: fb29 98bc b5ba c8bb 2038 b03d 6800 c9bd
000000d0: 1de4 363a 7e13 4bbd f0ad 5cbd f010 dabc
000000e0: 050d b03d 9077 c6bb abcc 55bd ecef b7bc
000000f0: fee1 663d c9ce 53bd 9e48 1bbd feec 303e

sequential/conv2d/BiasAdd/ReadVariableOp f4 [32]
0.036220316 0.038152292 -0.022895344 0.050748028 -0.0039159944 -0.009559945 -0.14281486 -0.02045464
-0.07812101 -0.0190392 -0.0070579913 0.0010549573 -0.014892665 -0.014504881 -0.1644046 -0.030365
-0.08966326 -0.03706684 -0.113658726 -0.04997125 -0.10511609 -0.052927162 -0.1873129 -0.036989942
-0.14961872 -0.14075762 0.06863854 -0.00658368 -0.15096726 0.013258048 -0.1865165 -0.02160947
00000000: c15b 143d 9445 1c3d 048f bbbc 2add 4f3d
00000010: be51 80bb 51a1 1cbc 0f3e 12be 7d90 a7bc
00000020: e8fd 9fbd 19f8 9bbc b946 e7bb 7e46 8a3a
00000030: 5d00 74bc e1a5 6dbc ae59 28be 05c0 f8bc
00000040: 5fa1 b7bd 66d3 17bd e8c5 e8bd a7ae 4cbd
00000050: 1b47 d7bd 27ca 58bd f4ce 3fbe c482 17bd
00000060: a635 19be c422 10be 5d92 8c3d e9bb d7bb
00000070: 2997 1abe 4938 593c 2efe 3ebe 5806 b1bc

sequential/conv2d_1/BiasAdd/ReadVariableOp f4 [64]
-0.04121544 -0.12003184 -0.12351007 -0.057780307 -0.039629024 0.02558613 -0.050293624 -0.06410073
-0.13756904 0.0022278088 -0.08436644 0.0656195 -0.042002603 -0.061399236 -0.0047183647 0.0064393147
-0.05654133 0.0067750337 -0.035430335 -0.042137064 -0.012641338 -0.103003286 -0.06153504 -0.045532208
-0.047215056 -0.03946876 -0.13873325 -0.055426545 -0.06900823 0.008912519 0.00779022 -0.092641294
-0.087000385 -0.14342915 -0.10737727 -0.008782633 -0.08415793 -0.01445997 -0.0068874015 -0.11910841
-0.098133765 -0.066779695 -0.08873161 -0.009803588 -0.022018494 -0.017393777 -0.008723688 -0.09152862
-0.09812782 -0.124837965 -0.08188793 -0.032812916 -0.068905935 -0.09552138 0.0024069417 -0.1357068
-0.092722654 0.0031748149 -0.056553267 -0.023334501 -0.012168398 -0.12823589 -0.08125681 -0.057270337
00000000: 85d1 28bd 41d3 f5bd d9f2 fcbd 0bab 6cbd
00000010: 0b52 22bd 019a d13c b000 4ebd 3e47 83bd
00000020: e6de 0cbe 6e00 123b 50c8 acbd 8463 863d
00000030: ec0a 2cbd c47d 7bbd 839c 9abb e300 d33b
00000040: e297 67bd 1a01 de3b 661f 11bd ea97 2cbd
00000050: 9d1d 4fbc 63f3 d2bd 2b0c 7cbd fb7f 3abd
00000060: 9364 41bd ffa9 21bd 1710 0ebe f206 63bd
00000070: 3054 8dbd d005 123c 1a45 ff3b b8ba bdbd
00000080: 422d b2bd 17df 12be 9de8 dbbd 08e5 0fbc
00000090: fe5a acbd 83e9 6cbc b6af e1bb 1cef f3bd
000000a0: 5bfa c8bd cbc3 88bd ebb8 b5bd 3a9f 20bc
000000b0: 2160 b4bc 657d 8ebc cded 0ebc 5b73 bbbd
000000c0: 3df7 c8bd 0cab ffbd dcb4 a7bd d666 06bd
000000d0: 8e1e 8dbd b7a0 c3bd c8bd 1d3b b9f6 0abe
000000e0: 60e5 bdbd 8e10 503b 66a4 67bd ff27 bfbc
000000f0: f65d 47bc 4550 03be f869 a6bd 4d94 6abd

sequential/conv2d_2/BiasAdd/ReadVariableOp f4 [64]
-0.03512932 -0.04024228 -0.042315185 -0.0694635 0.06451822 -0.056256574 -0.008589615 -0.10292504
0.05660574 -0.05881417 -0.043916393 -0.045164287 0.041683637 -0.028782828 -0.003823683 -0.028644802
0.049422182 -0.045867126 -0.0076948907 -0.081681155 -0.029834598 0.003048771 0.122773126 0.08585523
-0.023855329 -0.07580274 0.004604708 -0.08669292 0.046401963 -0.017623626 -0.032937404 -0.012858476
-0.026045078 -0.07251796 -0.028192595 -0.030083064 -0.02464832 -0.038778096 0.020801395 0.017385462
-0.0055818358 -0.07034007 -0.064380616 0.0051536313 -0.04295865 -0.045434687 0.02874781 -0.018508023
-0.054284137 -0.011788691 -0.014944536 -0.01849206 0.0065414268 0.08882105 0.018662395 -0.021679956
0.00037552786 0.021053962 -0.010395637 0.022386597 0.029917074 -0.024570411 -0.06396485 -0.08312166
00000000: c3e3 0fbd 17d5 24bd b052 2dbd e142 8ebd
00000010: 2122 843d 4b6d 66bd 75bb 0cbc 5dca d2bd
00000020: 6cdb 673d 21e7 70bd ade1 33bd 30fe 38bd
00000030: 76bc 2a3d f7c9 ebbc c196 7abb 81a8 eabc
00000040: ea6e 4a3d 2bdf 3bbd 6c25 fcbb 7348 a7bd
00000050: b067 f4bc e4cd 473b 7a70 fb3d ded4 af3d
00000060: 406c c3bc 783e 9bbd 17e3 963b 0f8c b1bd
00000070: fc0f 3e3d 6c5f 90bc 5fe9 06bd 5bac 52bc
00000080: 7d5c d5bc 4c84 94bd 28f4 e6bc c270 f6bc
00000090: 46eb c9bc c8d5 1ebd b067 aa3c f56b 8e3c
000000a0: d5e7 b6bb 740e 90bd fcd9 83bd cbdf a83b
000000b0: 69f5 2fbd b919 3abd 8780 eb3c 239e 97bc
000000c0: 0b59 5ebd 5b25 41bc edd9 74bc a97c 97bc
000000d0: 7759 d63b d0e7 b53d e1e1 983c 2a9a b1bc
000000e0: 7fe2 c439 5c79 ac3c 7652 2abc 1964 b73c
000000f0: a714 f53c e347 c9bc 0100 83bd b03b aabd

sequential/conv2d/Conv2D f4 [32, 3, 3, 1]
-0.15380985 0.14339478 0.32586092 -0.63081574 -0.14132936 0.38118643 -0.13543622 -0.44382823
-0.008146234 -0.0790669 0.20400015 0.304252 -0.22314224 -0.2576339 0.110991 -0.11407686
-0.35873276 -0.4181375 0.1779194 0.071156375 0.19917235 0.018221015 -0.013175734 0.121098906
-0.28834915 -0.15571617 -0.1405085 0.1872297 0.14455946 -0.3999251 -0.024283957 -0.6683143
-0.10612106 -0.4823569 0.091064386 0.4182967 0.09558078 0.084678985 0.23823142 0.013872703
0.113020696 -0.025239281 -0.15427755 -0.3155843 -0.06986164 -0.284174 0.1619325 -0.09396188
-0.08399453 0.23448305 0.13324793 -0.09257374 -0.026073575 0.02317616 -0.02016665 -0.056415293
-0.041291717 0.051924214 0.0552037 0.03927191 0.007070749 -0.016125768 -0.13227662 -0.023697974
-0.024442114 -0.100568905 0.24613747 0.008429479 -0.36981973 0.17230403 0.22010782 -0.24540755
-0.23554331 0.17137866 -0.12046463 -0.13307211 0.18750246 0.032078557 0.06405342 0.0016218936
-0.17537767 0.13515721 0.062418666 0.008806738 0.010994893 0.015108285 0.010051967 -0.073208526
-0.18641217 -0.35365278 -0.18731198 -0.5260678 0.10078792 0.26418072 -0.16711761 -0.1327054
0.28889558 0.11283091 -0.071338765 -0.092481256 0.14898574 -0.047955498 -0.0140526565 0.041571602
0.31310633 -0.014453267 -0.26132798 -0.25820696 0.29672357 -0.10484247 -0.18544964 0.2912112
-0.026364082 -0.25900078 0.10566888 -0.15905708 -0.49158457 0.13139014 0.15872885 0.18505862
0.0800257 -0.0015646287 -0.08438335 -0.2646984 -0.23032895 -0.034095 -0.0022231357 -0.045111157
0.057406634 0.0693939 -0.086129054 0.045503564 0.018031282 -0.1242549 0.050175346 -0.16300526
0.17531306 0.03739497 0.13303006 0.13822687 -0.14902437 -0.07390743 -0.09375707 -0.08065177
-0.26843387 -0.023718216 0.13522637 0.03310645 0.3585835 -0.04830719 0.14143224 0.045689877
-0.42769992 -0.3091627 -0.10938528 0.27686432 -0.4086024 0.22060905 0.17455412 -0.26086217
0.0768694 0.048407536 0.12102123 -0.1357986 -0.43310356 0.07355647 0.037005834 -0.051314894
0.15508188 0.12376367 0.23148559 -0.22049475 0.050143655 -0.13590805 0.04216088 0.08792437
-0.28473672 0.010239498 0.13116376 0.11678377 0.068820484 0.03221218 -0.15145269 0.06442981
0.07240645 -0.26934287 -0.115686394 0.1015164 0.064258575 0.044445444 -0.13179559 0.1425736
-0.012474312 -0.28071573 -0.41077498 0.31948474 0.18887742 0.11141045 0.10243432 -0.049013328
-0.10037744 -0.07585503 0.016166447 0.067437075 -0.10916846 0.03845964 -0.03411498 -0.291103
-0.06336616 0.07700749 -0.31957987 -0.13055018 0.16494855 -0.37078965 -0.0740205 0.19792107
0.029491864 -0.030591866 -0.10627086 0.09052565 0.03747854 -0.14226346 -0.057163093 0.21766414
0.06657391 0.15418255 -0.23752761 -0.08462535 -0.020398224 -0.23086542 0.12736501 0.0428882
0.16142642 0.1095198 0.23873426 0.19035725 0.025257546 -0.048924625 0.0676008 -0.11735218
-0.22103119 -0.4813799 -0.2813748 -0.15265933 -0.4259361 -0.092013605 -0.49139366 0.11767469
0.31764114 -0.07814401 0.12225737 0.2168821 -0.029072748 0.14834195 -0.18072778 -0.03577895
00000000: 5480 1dbe 15d6 123e 3ed7 a63e 247d 21bf
00000010: a5b8 10be de2a c33e cbaf 0abe 743d e3be
00000020: c877 05bc d4ed a1bd 6ae5 503e ebc6 9b3e
00000030: 667f 64be 97e8 83be 404f e33d 21a1 e9bd
00000040: d2ab b7be 1e16 d6be 8130 363e 6fba 913d
00000050: d6f3 4b3e 3d44 953c 09df 57bc b402 f83d
00000060: 80a2 93be 0f74 1fbe 76e1 0fbe 24b9 3f3e
00000070: 6507 143e fcc2 ccbe 26ef c6bc a516 2bbf
00000080: 0056 d9bd 7cf7 f6be f77f ba3d fc2a d63e
00000090: dbbf c33d 2d6c ad3d f0f2 733e 554a 633c
000000a0: 6577 e73d 9cc2 cebc effa 1dbe 4494 a1be
000000b0: 9f13 8fbd 417f 91be a2d1 253e 166f c0bd
000000c0: 5305 acbd 531c 703e 2572 083e 4d97 bdbd
000000d0: 4098 d5bc eedb bd3c 8834 a5bc b913 67bd
000000e0: 8121 29bd 7cae 543d 461d 623d 95db 203d
000000f0: beb1 e73b 301a 84bc 8673 07be 4122 c2bc
00000100: d43a c8bc 12f7 cdbd 760b 7c3e cc1b 0a3c
00000110: 0359 bdbe 7870 303e f263 613e 1e4c 7bbe
00000120: 4432 71be e37d 2f3e 29b6 f6bd 0e44 08be
00000130: a500 403e ce64 033d 712e 833d b895 d43a
00000140: 3496 33be a766 0a3e b7aa 7f3d 234a 103c
00000150: ec23 343c bd88 773c 01b1 243c 5aee 95bd
00000160: d5e2 3ebe fa11 b5be b6ce 3fbe 61ac 06bf
00000170: e669 ce3d b242 873e e120 2bbe ede3 07be
00000180: 1fea 933e e413 e73d 0f1a 92bd d066 bdbd
00000190: b88f 183e fc6c 44bd 1d3d 66bc fc46 2a3d
000001a0: 794f a03e 65cd 6cbc c8cc 85be b433 84be
000001b0: 27ec 973e a6b7 d6bd 83e6 3dbe a219 953e
000001c0: 7df9 d7bc c09b 84be ed68 d83d dcdf 22be
000001d0: f9b0 fbbe 238b 063e d189 223e 0280 3d3e
000001e0: 84e4 a33d 3a14 cdba 2ed1 acbd 8c86 87be
000001f0: 5adb 6bbe 33a7 0bbd 07b2 11bb 7ac6 38bd
00000200: 3823 6b3d 641e 8e3d 6e64 b0bd f261 3a3d
00000210: 57b6 933c 5a79 febd aa84 4d3d daea 26be
00000220: 4485 333e 782b 193d 0839 083e 588b 0d3e
00000230: d899 18be c75c 97bd b503 c0bd c12c a5bd
00000240: 2a70 89be b44c c2bc c878 0a3e a19a 073d
00000250: 4298 b73e c3dd 45bd 9dd3 103e 4f25 3b3d
00000260: 7cfb dabe 934a 9ebe 6405 e0bd 29c1 8d3e
00000270: 5534 d1be 57e7 613e 51be 323e ba8f 85be
00000280: b46d 9d3d fb46 463d fbd9 f73d ca0e 0bbe
00000290: c0bf ddbe c6a4 963d 6e93 173d 912f 52bd
000002a0: c9cd 1e3e cf77 fd3d 8f0a 6d3e 60c9 61be
000002b0: 6f63 4d3d 7b2b 0bbe e3b0 2c3d b111 b43d
000002c0: 03c9 91be 91c3 273c cb4f 063e 542c ef3d
000002d0: c1f1 8c3d ebf0 033d 6a16 1bbe c7f3 833d
000002e0: d549 943d 4fe7 89be fdec ecbd d5e7 cf3d
000002f0: 009a 833d 6d0c 363d 6cf5 06be d0fe 113e
00000300: 0f61 4cbc f9b9 8fbe 1951 d2be 8193 a33e
00000310: 1569 413e 292b e43d 16c9 d13d 33c2 48bd
00000320: b092 cdbd e259 9bbd 7f6f 843c 731c 8a3d
00000330: b793 dfbd db87 1d3d 26bc 0bbd 740b 95be
00000340: 1ec6 81bd 1ab6 9d3d f99f a3be f2ae 05be
00000350: 46e8 283e 24d8 bdbe 0f98 97bd d2ab 4a3e
00000360: ec98 f13c cb9b fabc 89a4 d9bd 8365 b93d
00000370: 1983 193d 83ad 11be d923 6abd 59e3 5e3e
00000380: e757 883d 08e2 1d3e 703a 73be 0e50 adbd
00000390: 2d1a a7bc fc67 6cbe f96b 023e 8aab 2f3d
000003a0: f84c 253e eb4b e03d c176 743e 03ed 423e
000003b0: eae8 ce3c 3065 48bd 4a72 8a3d 5756 f0bd
000003c0: 0056 62be 6d77 f6be 5c10 90be ba52 1cbe
000003d0: 4c14 dabe a171 bcbd f397 fbbe 6eff f03d
000003e0: dca1 a23e f709 a0bd 1262 fa3d 5716 5e3e
000003f0: f929 eebc f4e6 173e b410 39be f38c 12bd

sequential/conv2d_1/Conv2D i1 [64, 3, 3, 32]
67 36 -29 1 -56 33 16 6
26 -25 9 -42 26 -84 -4 -26
7 -4 63 2 23 41 43 38
60 45 -87 31 59 67 25 9
-65 -32 -35 -79 -6 3 38 40
17 -24 61 -44 56 0 9 -20
52 4 1 -19 -16 36 13 8
24 -18 -4 52 -7 25 44 42
-53 -60 -42 -1 -10 -26 -1 -58
-12 -46 -60 -33 -2 -28 4 -12
-5 -49 -127 -71 4 -81 -44 -51
-64 -98 -11 -39 -32 -50 -16 -94
9 82 70 12 69 38 0 5
9 54 -29 105 5 73 -3 82
20 48 -47 -75 -14 -66 -5 -11
-41 -37 63 -19 -5 39 26 37
-51 -58 39 43 34 12 -32 6
4 27 -71 -30 40 63 6 28
-4 -8 -49 -94 -5 -32 -4 -26
-27 14 48 41 -52 8 -45 -10
-77 -91 -68 -44 -82 -4 1 -25
-15 -94 -74 -73 -7 -93 -8 -76
33 -32 -55 -44 -21 -38 -17 -55
-64 -77 -62 -37 -26 -37 5 -46
-88 -13 -2 92 15 -82 -51 -108
-72 19 -77 -6 -57 54 -37 1
-53 -45 27 -8 0 -15 -13 -52
-5 41 51 30 -86 -62 -58 70
-95 -23 -39 9 -54 15 -53 -94
-10 -15 17 -64 -53 -13 -29 -51
-11 -21 13 -11 -28 -7 -18 -4
-40 15 19 10 -25 -27 -18 20
00000000: 4324 e301 c821 1006 1ae7 09d6 1aac fce6
00000010: 07fc 3f02 1729 2b26 3c2d a91f 3b43 1909
00000020: bfe0 ddb1 fa03 2628 11e8 3dd4 3800 09ec
00000030: 3404 01ed f024 0d08 18ee fc34 f919 2c2a
00000040: cbc4 d6ff f6e6 ffc6 f4d2 c4df fee4 04f4
00000050: fbcf 81b9 04af d4cd c09e f5d9 e0ce f0a2
00000060: 0952 460c 4526 0005 0936 e369 0549 fd52
00000070: 1430 d1b5 f2be fbf5 d7db 3fed fb27 1a25
00000080: cdc6 272b 220c e006 041b b9e2 283f 061c
00000090: fcf8 cfa2 fbe0 fce6 e50e 3029 cc08 d3f6
000000a0: b3a5 bcd4 aefc 01e7 f1a2 b6b7 f9a3 f8b4
000000b0: 21e0 c9d4 ebda efc9 c0b3 c2db e6db 05d2
000000c0: a8f3 fe5c 0fae cd94 b813 b3fa c736 db01
000000d0: cbd3 1bf8 00f1 f3cc fb29 331e aac2 c646
000000e0: a1e9 d909 ca0f cba2 f6f1 11c0 cbf3 e3cd
000000f0: f5eb 0df5 e4f9 eefc d80f 130a e7e5 ee14

sequential/conv2d_2/Conv2D i1 [64, 3, 3, 64]
-74 24 -50 27 -7 -23 -57 -8
19 -23 16 17 59 46 -86 -65
-60 -7 19 -29 -31 18 9 -84
32 -62 28 -45 -72 -27 -30 -7
-88 8 -64 -22 -50 -78 28 -4
-14 -6 -33 -36 -33 45 -64 -81
-58 -74 -12 -67 -12 -23 -23 -14
-66 35 3 -45 -37 -19 -61 -52
-4 39 27 -16 14 -75 -63 -52
23 -33 -6 -77 -25 24 -75 -51
59 -58 -19 -48 -29 -6 -36 -74
-37 32 -8 -29 -13 49 -55 15
53 -75 32 4 -55 -50 -35 -75
34 -56 -6 -84 -4 35 -27 -33
-59 -60 -17 18 10 10 -1 -68
-76 -70 -76 -52 23 31 -40 60
-83 -50 42 -25 -37 -20 64 33
-33 7 20 -30 -16 -34 33 -50
-40 -57 11 -24 -45 2 -92 -40
-41 -46 11 44 28 -52 24 -56
-110 -1 -22 -27 45 9 15 21
-76 20 17 44 47 17 -57 45
16 -57 26 -47 -47 38 -26 -95
-4 39 43 39 -7 -6 11 -17
-7 -83 -68 23 -35 9 31 -73
50 -58 32 -17 -14 47 -26 23
25 38 35 39 -49 33 7 10
2 -29 -50 -24 -20 -25 -50 -61
34 -59 -50 59 1 -32 -81 44
-77 -12 -22 -37 -6 -44 -100 -42
36 11 23 -48 -27 -2 20 -74
15 36 -21 44 -79 15 5 -21
00000000: b618 ce1b f9e9 c7f8 13e9 1011 3b2e aabf
00000010: c4f9 13e3 e112 09ac 20c2 1cd3 b8e5 e2f9
00000020: a808 c0ea ceb2 1cfc f2fa dfdc df2d c0af
00000030: c6b6 f4bd f4e9 e9f2 be23 03d3 dbed c3cc
00000040: fc27 1bf0 0eb5 c1cc 17df fab3 e718 b5cd
00000050: 3bc6 edd0 e3fa dcb6 db20 f8e3 f331 c90f
00000060: 35b5 2004 c9ce ddb5 22c8 faac fc23 e5df
00000070: c5c4 ef12 0a0a ffbc b4ba b4cc 171f d83c
00000080: adce 2ae7 dbec 4021 df07 14e2 f0de 21ce
00000090: d8c7 0be8 d302 a4d8 d7d2 0b2c 1ccc 18c8
000000a0: 92ff eae5 2d09 0f15 b414 112c 2f11 c72d
000000b0: 10c7 1ad1 d126 e6a1 fc27 2b27 f9fa 0bef
000000c0: f9ad bc17 dd09 1fb7 32c6 20ef f22f e617
000000d0: 1926 2327 cf21 070a 02e3 cee8 ece7 cec3
000000e0: 22c5 ce3b 01e0 af2c b3f4 eadb fad4 9cd6
000000f0: 240b 17d0 e5fe 14b6 0f24 eb2c b10f 05eb

sequential/dense/MatMul i1 [64, 576] scale=0.0049286373 zero_point=0
0.05421501 0.014785912 0.049286373 -0.05421501 0.009857275 0.0788582 -0.12321593 0.014785912
-0.07392956 0.014785912 -0.01971455 0.0788582 -0.25628912 -0.01971455 -0.13800184 0.03450046
0.23164596 -0.029571824 0.06900092 -0.10843002 -0.20700276 -0.18235958 -0.19221686 0.28093234
-0.23164596 0.08871547 -0.014785912 0.12321593 0.18728822 0.22671732 -0.024643186 0.21193141
0.15278776 -0.024643186 -0.17250231 0.06900092 0.044357736 -0.12321593 -0.059143648 0.044357736
0.22671732 0.14785913 -0.19714549 -0.0049286373 -0.014785912 -0.2760037 -0.11335866 0.024643186
0.15278776 0.059143648 0.07392956 -0.14293048 -0.0049286373 -0.16264503 0.12321593 -0.08378683
-0.12814456 -0.024643186 -0.024643186 -0.12321593 0.10350138 -0.044357736 0.31050414 0.014785912
0.08871547 -0.009857275 0.03450046 -0.06407228 -0.29571825 -0.0788582 -0.10350138 0.14293048
-0.14785913 -0.098572746 -0.014785912 -0.07392956 0.0049286373 0.0 -0.01971455 0.07392956
-0.03450046 -0.19714549 -0.059143648 -0.14785913 0.0049286373 0.08871547 0.024643186 0.07392956
-0.16264503 0.024643186 0.16264503 -0.12321593 0.12814456 0.049286373 0.098572746 0.14293048
0.098572746 0.024643186 0.08378683 -0.10350138 -0.03450046 -0.024643186 -0.19714549 0.10843002
0.059143648 -0.05421501 -0.26121777 0.118287295 -0.20207413 0.06900092 -0.0788582 -0.12814456
-0.12321593 -0.06900092 0.049286373 0.11335866 0.024643186 0.06900092 -0.14293048 -0.06407228
0.08871547 -0.03450046 -0.12814456 -0.17743094 -0.17250231 -0.06407228 -0.0394291 -0.08871547
-0.07392956 -0.06900092 -0.049286373 0.014785912 -0.40414825 -0.10843002 -0.13307321 0.049286373
0.06900092 -0.18235958 0.0394291 0.01971455 -0.08378683 -0.20207413 -0.43864873 0.029571824
0.06900092 0.014785912 0.024643186 -0.024643186 -0.29571825 -0.17743094 0.05421501 0.044357736
0.0 -0.014785912 0.0788582 -0.10350138 -0.024643186 0.098572746 0.10350138 0.14293048
-0.15278776 0.07392956 -0.0788582 -0.20207413 -0.05421501 0.05421501 -0.23657459 0.009857275
-0.01971455 -0.10843002 -0.13307321 0.26121777 -0.33514732 0.049286373 0.20207413 0.014785912
-0.01971455 0.118287295 -0.029571824 -0.12321593 -0.16264503 -0.18235958 -0.15278776 0.098572746
0.05421501 0.24150322 0.23164596 -0.049286373 0.0788582 0.01971455 0.01971455 0.098572746
-0.09364411 -0.024643186 0.05421501 0.0 -0.20207413 0.08378683 -0.05421501 0.029571824
-0.13800184 -0.12321593 -0.029571824 0.05421501 0.06407228 -0.1577164 0.0788582 0.06407228
0.16264503 -0.0394291 -0.18235958 -0.10350138 -0.05421501 -0.21193141 -0.11335866 0.16757366
0.14785913 0.09364411 -0.0394291 -0.19221686 0.16757366 -0.059143648 0.19714549 0.044357736
-0.20207413 0.03450046 0.024643186 -0.13307321 0.029571824 0.118287295 0.029571824 -0.09364411
0.118287295 -0.118287295 -0.07392956 -0.14293048 0.029571824 -0.059143648 0.18728822 -0.13307321
0.10350138 0.11335866 0.009857275 -0.13307321 -0.08871547 -0.08378683 -0.14785913 -0.06900092
0.06407228 -0.06407228 0.10843002 0.05421501 0.18728822 -0.09364411 0.29571825 0.20207413
00000000: 0b03 0af5 0210 e703 f103 fc10 ccfc e407
00000010: 2ffa 0eea d6db d939 d112 fd19 262e fb2b
00000020: 1ffb dd0e 09e7 f409 2e1e d8ff fdc8 e905
00000030: 1f0c 0fe3 ffdf 19ef e6fb fbe7 15f7 3f03
00000040: 12fe 07f3 c4f0 eb1d e2ec fdf1 0100 fc0f
00000050: f9d8 f4e2 0112 050f df05 21e7 1a0a 141d
00000060: 1405 11eb f9fb d816 0cf5 cb18 d70e f0e6
00000070: e7f2 0a17 050e e3f3 12f9 e6dc ddf3 f8ee
00000080: f1f2 f603 aeea e50a 0edb 0804 efd7 a706
00000090: 0e03 05fb c4dc 0b09 00fd 10eb fb14 151d
000000a0: e10f f0d7 f50b d002 fcea e535 bc0a 2903
000000b0: fc18 fae7 dfdb e114 0b31 2ff6 1004 0414
000000c0: edfb 0b00 d711 f506 e4e7 fa0b 0de0 100d
000000d0: 21f8 dbeb f5d5 e922 1e13 f8d9 22f4 2809
000000e0: d707 05e5 0618 06ed 18e8 f1e3 06f4 26e5
000000f0: 1517 02e5 eeef e2f2 0df3 160b 26ed 3c29
